reports/fraud_detector_model.pth (torch, 21980 bytes, 7 tensors)

network.0.weight f4 [64, 30]
0	0x3dd09021	0.101837404
1	0xc0477430	-3.1164665
2	0x4015c0ff	2.3399045
3	0x402ac475	2.6682408
4	0xbfca4f05	-1.5805365
5	0x3f7edfb8	0.9956012
6	0x3efd002e	0.494142
7	0x3db57d85	0.088618316
8	0x40546b46	3.3190475
9	0x3f5f593e	0.8724555
10	0xbe246b78	-0.16056621
11	0xbf8c9a06	-1.0984504
12	0xbece4e51	-0.40294126
13	0x3eaca39a	0.33718568
14	0x3fdfec4d	1.7493988
15	0xbf4be2aa	-0.79642737
16	0x3fb182a1	1.386799
17	0x3f0297c1	0.5101281
18	0x3f964b0d	1.1741654
19	0x3efecaf8	0.49764228
20	0xbf351f8f	-0.7075128
21	0xc009100e	-2.141605
22	0xbdfc0fd9	-0.1230771
23	0x3f9c7e24	1.2225995
24	0xbf4e664e	-0.80624855
25	0xbf4335ee	-0.76254165
26	0x3f0d5bae	0.5521802
27	0xbfb24fdf	-1.3930625
28	0xbf3bb378	-0.7332072
29	0x3ddc724e	0.107639894
30	0x41057aa6	8.342443
31	0x3d7fc0fb	0.0624399
32	0xbeeaf0a2	-0.45886713
33	0xbfed8141	-1.855507
34	0xbe9ee202	-0.31031805
35	0xbe9f4a6f	-0.31111476
36	0x3da8e1d8	0.08246201
37	0x3f1b13f5	0.60577327
38	0xbf86eb28	-1.0540514
39	0x3f287852	0.65808594
40	0xc07d67e1	-3.9594653
41	0xbedff77b	-0.437435
42	0x3e76a256	0.24085364
43	0xbf1c03f1	-0.60943514
44	0xbfa307e1	-1.273678
45	0x3fb86a03	1.4407352
46	0xc02807f4	-2.6254854
47	0xbfcb4470	-1.588026
48	0xbd127afe	-0.035761826
49	0x3fa8b388	1.3179789
50	0x3f3b139e	0.7307681
51	0xbf0594ef	-0.5218038
52	0x3f143f87	0.57909435
53	0xbdff3938	-0.124620855
54	0x3efb100a	0.49035674
55	0x3edd3d74	0.43210948
56	0xbf8a04b3	-1.0782684
57	0xbe1cd80e	-0.15316793
58	0xbf537013	-0.82592887
59	0x3ef954bc	0.4869746
60	0xbfc6b84e	-1.5524995
61	0x3f837fc2	1.0273364
62	0x3f102142	0.5630075
63	0xbf50bd8b	-0.8153922
64	0xc01c23ab	-2.439677
65	0x3e220c62	0.15825036
66	0xc0214283	-2.5196846
67	0xbc200614	-0.009767074
68	0x4034ae3b	2.8231342
69	0xbecebb9c	-0.4037751
70	0x3f5c39b6	0.8602556
71	0x3fcdb00c	1.606935
72	0x402b14a7	2.6731355
73	0x3f5cb840	0.86218643
74	0x4000c672	2.0121121
75	0x3f843406	1.0328376
76	0x3e7d34b2	0.24727133
77	0xbd8a9629	-0.06766922
78	0x3f216276	0.63040864
79	0xbfca4940	-1.5803604
80	0xbf5773a4	-0.8416083
81	0xc0413fe1	-3.0195239
82	0x4024a4b7	2.5725534
83	0x3f9b485d	1.2131459
84	0xbf9be2fd	-1.2178646
85	0xbf7725fd	-0.9654234
86	0xbe21c87c	-0.15799135
87	0xbfb35ab1	-1.4012052
88	0xbff27161	-1.894085
89	0xbed3f540	-0.41398048
90	0x4061e24b	3.5294368
91	0x3fffd765	1.9987608
92	0xbe6cb6b0	-0.23116565
93	0xbe868ce4	-0.26279366
94	0xbf955fdf	-1.1669883
95	0xbf97ea6c	-1.1868415
96	0xbf49ee80	-0.7887955
97	0xbec77ff6	-0.38964814
98	0x4006bfed	2.1054642
99	0x3e8ebff7	0.27880833
100	0xc01722a5	-2.3614895
101	0xbf64598e	-0.8919915
102	0x3f0a9f8c	0.541497
103	0x3fa66deb	1.3002294
104	0xc00a3301	-2.159363
105	0x400b80b8	2.1797314
106	0xbfc1c19c	-1.513721
107	0xbf7c32c0	-0.9851494
108	0xbd041b5e	-0.032252662
109	0xbef06873	-0.46954688
110	0xbf647579	-0.8924175
111	0x3e266b0c	0.16251773
112	0x3c3f24ef	0.0116665205
113	0x3f25ec84	0.6481402
114	0x3f3617d4	0.7113011
115	0x3f86d5ef	1.0534037
116	0xbef17a8a	-0.47163802
117	0xbf55490e	-0.833146
118	0xbf0f82a8	-0.5605874
119	0xbdcd3e8e	-0.10021697
120	0x4208e3ac	34.222336
121	0x3f378d74	0.71700215
122	0xbd99f4b4	-0.075173765
123	0x3f87d69d	1.061237
124	0x3eba7b73	0.3642231
125	0x3e217d41	0.15770437
126	0xbddc8e6b	-0.107693516
127	0x3df58fde	0.11990331
128	0x3f1387c0	0.57629013
129	0x3f007609	0.5018011
130	0x3e55c0d1	0.20874335
131	0x3fb5cdfc	1.4203486
132	0xbf410d33	-0.75410765
133	0xbda74e42	-0.08169223
134	0x3f034a4c	0.51285243
135	0x3ec18cc4	0.37802708
136	0xbf148d50	-0.58028126
137	0xbece6fa8	-0.40319562
138	0xbe34cd52	-0.17656448
139	0xbf4404de	-0.76569927
140	0xbeabe92b	-0.3357633
141	0xbf133e19	-0.5751663
142	0xbeba04d3	-0.36331806
143	0xbc3f5d5a	-0.011679972
144	0x3f06ee61	0.5270749
145	0xbc7d00af	-0.0154420575
146	0xbe90374d	-0.2816719
147	0x3f78f6d5	0.97251636
148	0xbda97dc9	-0.08275945
149	0xbdb1694b	-0.08662661
150	0xbf1e9a39	-0.61954075
151	0xbfaadd8e	-1.3348863
152	0xbf0be5ac	-0.54647326
153	0x3fb02410	1.3761005
154	0xbef551f6	-0.47914094
155	0xbf3dd457	-0.7415213
156	0x4045e511	3.092106
157	0xbf68c34c	-0.90923
158	0x404c618b	3.1934536
159	0x3da4c68d	0.08045683
160	0x3e877908	0.26459527
161	0xbdb92d8c	-0.090418905
162	0x3ff0a58f	1.8800524
163	0x3f1a6095	0.6030362
164	0x3fd736af	1.6813563
165	0x3d98be63	0.074581884
166	0x3ff5da8c	1.920732
167	0x3c8384d8	0.016054556
168	0x3f583a8d	0.8446434
169	0x3f0e63e5	0.55621177
170	0xbe1568d4	-0.1459077
171	0xbf71d6ce	-0.9446839
172	0xbf9618e7	-1.172635
173	0x3f42cd07	0.76094097
174	0x3bee6ba3	0.007276015
175	0xc0361739	-2.8451674
176	0xbf417ad7	-0.75578064
177	0x3fda5dc3	1.7059864
178	0x3fe55e45	1.7919394
179	0xbeb76e25	-0.3582622
180	0xbf6bb60a	-0.92074645
181	0x4077d3e8	3.8723087
182	0xbf507ee7	-0.8144364
183	0x3f1c26e0	0.6099682
184	0xbf30c79a	-0.6905457
185	0xbed1f4da	-0.4100712
186	0xbfeb8b3f	-1.840187
187	0xbe61954b	-0.22029607
188	0x3f72e305	0.94877654
189	0xbef89968	-0.4855454
190	0x3e72e7e3	0.2372127
191	0xbf2b3c46	-0.66888845
192	0x40078b00	2.117859
193	0xbfb3b7a4	-1.4040418
194	0x3e59618a	0.21228614
195	0xbdab0661	-0.08350826
196	0x3f4ef141	0.80836874
197	0xbfe5f75b	-1.7966112
198	0xbfd726d6	-1.6808727
199	0xbf8eafc1	-1.1147386
200	0x3fbce91e	1.4758642
201	0xbfb93ef1	-1.4472333
202	0x3f7e6574	0.99373555
203	0x3e104def	0.1409223
204	0xbf4ee581	-0.80818945
205	0xbe3eefc8	-0.18646157
206	0xbec459d3	-0.3834978
207	0x4063e0ba	3.5605912
208	0x3f72e94d	0.9488724
209	0x3d5ae4d8	0.0534409
210	0xbef225d1	-0.47294477
211	0x3f921af4	1.1414475
212	0x400cf918	2.2027035
213	0xbf4f8844	-0.810673
214	0xc080df64	-4.0272694
215	0x3f42fa0e	0.76162803
216	0xbc0eeea6	-0.00872389
217	0x3ec7905c	0.38977325
218	0x40497881	3.14798
219	0xbf7d6d78	-0.9899516
220	0x3e67837b	0.2260875
221	0x3ed22915	0.41046968
222	0x409577bb	4.6708655
223	0xbe259abe	-0.1617231
224	0xbeacf3d0	-0.33779764
225	0x3f5ea5da	0.8697182
226	0x3f1fee4a	0.62472975
227	0xbfb0d7a6	-1.3815811
228	0xbeed2b40	-0.4632206
229	0xc042ecfa	-3.045714
230	0x3f9b97bb	1.215568
231	0x3f45c807	0.7725834
232	0x4040422b	3.0040386
233	0x3eda5ba3	0.42648038
234	0xc021b04f	-2.526386
235	0xc000b113	-2.0108078
236	0xbcc398a9	-0.023876505
237	0x3fa8f77c	1.3200526
238	0xc0275936	-2.61482
239	0x3e115e67	0.14196168
240	0xbfa42701	-1.2824403
241	0x400dc517	2.2151544
242	0x40334fa2	2.8017354
243	0x400b9be2	2.1813893
244	0xbfa5f905	-1.296662
245	0x3f271360	0.6526394
246	0xc012d435	-2.294202
247	0x3e701cf3	0.23448543
248	0x408819be	4.2531424
249	0xc0064ab7	-2.0983102
250	0x3ec8f542	0.39249617
251	0xbf2b8f80	-0.6701584
252	0x400d0698	2.2035275
253	0x3f0ae59b	0.542566
254	0x3f94af4f	1.1616
255	0x3feea607	1.8644418

network.0.bias f4 [64]
0	0xc0bcf571	-5.904961
1	0x3f385b33	0.7201416
2	0xc0bf39dc	-5.975813
3	0xbf163f89	-0.58690697
4	0x3fa4a17c	1.2861781
5	0xc0c35030	-6.1035385
6	0xc08bb93d	-4.366362
7	0xc0bd1a47	-5.9094577
8	0xc0d4d8b5	-6.6514535
9	0xc0f12ddc	-7.536848
10	0xc0c2621e	-6.074477
11	0xc0c487e5	-6.1415887
12	0xc06fac93	-3.744908
13	0xc0885f16	-4.261607
14	0xc04ba051	-3.18166
15	0x3f8342c1	1.0254747
16	0xc00f72e9	-2.2413886
17	0x3f1343d3	0.57525367
18	0xbfb02572	-1.3761427
19	0x3f9792ee	1.1841714
20	0xc0ceb679	-6.4597745
21	0x3fbc3c22	1.4705851
22	0xc0bdd27e	-5.931945
23	0xc0892157	-4.28532
24	0xc0b21ddf	-5.5661464
25	0xbffa9f2d	-1.9579827
26	0xc0aba520	-5.363907
27	0xc0990494	-4.781809
28	0xc0d9ec83	-6.810121
29	0xc0f39a77	-7.6126056
30	0xc0bf173d	-5.9715867
31	0xc0389a96	-2.8844352
32	0x3f7129da	0.94204485
33	0x3f053c9f	0.52045625
34	0x3ee3a1e5	0.44459453
35	0xc090b149	-4.5216413
36	0xbff28c70	-1.8949108
37	0xc0807165	-4.013842
38	0xc0cdb1a6	-6.4279356
39	0xbdae93cb	-0.08524283
40	0xc07290ee	-3.7900958
41	0x3f279655	0.65463763
42	0xbfd497dc	-1.6608844
43	0xc0af96a4	-5.4871387
44	0xc00b5edb	-2.1776645
45	0xc0bcda5f	-5.9016566
46	0xc02c1208	-2.6886005
47	0xc01ffb16	-2.4997
48	0xbf81f536	-1.0152957
49	0x3f8ede88	1.1161661
50	0xc0d4e354	-6.65275
51	0xc0de7cd2	-6.952737
52	0x3f41311b	0.75465554
53	0xc0eb59c6	-7.3547087
54	0x3fba651b	1.4562105
55	0x3def6865	0.116898336
56	0x3f5656c0	0.8372612
57	0x3f419294	0.75614285
58	0xbf0b286b	-0.5435855
59	0xc0d4a7ad	-6.645468
60	0x3ef772af	0.48329684
61	0x3f666305	0.8999484
62	0x3f1ec247	0.62015194
63	0xc0bc1e5b	-5.8787055

network.3.weight f4 [32, 64]
0	0x408e190a	4.4405565
1	0xbf3fade4	-0.7487471
2	0x40ce4df2	6.447015
3	0xbd94d0d4	-0.07266393
4	0x3ec905d5	0.39262262
5	0x41107e83	9.030887
6	0x40ab665b	5.3562446
7	0x40cc08ee	6.37609
8	0x40591a1a	3.392218
9	0x404179a5	3.0230496
10	0x40a27582	5.076844
11	0x40d0635c	6.512129
12	0x40e5759a	7.1706057
13	0x410b4089	8.703256
14	0xbe890068	-0.26758122
15	0xc004aec9	-2.073168
16	0x3d9e4176	0.077273294
17	0xbfc55847	-1.5417565
18	0xbf83bd01	-1.0292054
19	0xbfc6ca76	-1.5530536
20	0x3f8650a8	1.0493364
21	0xc024184e	-2.5639834
22	0x4036b0e1	2.8545458
23	0x405210a9	3.2822669
24	0x4106793d	8.404599
25	0x4002717a	2.038176
26	0x409fce0b	4.9939017
27	0x4048f346	3.1398482
28	0x40d87f5d	6.7655473
29	0x4091d532	4.557275
30	0x40b66a6d	5.7004914
31	0x3fa5c4e2	1.2950709
32	0xc006837f	-2.101776
33	0xbfd65118	-1.6743498
34	0xbfcf48fc	-1.6194148
35	0x3f7b86eb	0.98252743
36	0x3f18fc3f	0.59759897
37	0x3fd525a5	1.6652113
38	0x404cdd29	3.2009985
39	0xc005b3ce	-2.0890994
40	0x40da7817	6.8271594
41	0xbff2aeca	-1.8959591
42	0x3f90ebf5	1.1322008
43	0x40f6f071	7.7168508
44	0xbe5ed919	-0.21762504
45	0x40d4b635	6.647242
46	0x3ee5d788	0.44891
47	0xbf437e63	-0.76364726
48	0x3d081995	0.033227522
49	0xbf2b8173	-0.669944
50	0x40e1a9ef	7.051994
51	0x40bb883b	5.8603797
52	0xbfc4a7f6	-1.5363758
53	0x40f4f34e	7.6547003
54	0xbfc3354e	-1.5250642
55	0xbfdcea30	-1.7258968
56	0xbfb0fca8	-1.3827105
57	0xbfb2e91b	-1.3977388
58	0xbfaa2763	-1.329327
59	0x40d84295	6.7581277
60	0xbf938715	-1.1525599
61	0xbf6df15b	-0.92946404
62	0x3fd4d9e7	1.6628999
63	0x40deb606	6.9597197
64	0xbf8e8f4c	-1.1137481
65	0x40001bba	2.0016923
66	0xbfd5937e	-1.6685636
67	0x3faca311	1.3487264
68	0x4099fa34	4.8117924
69	0xbec6ffd9	-0.3886707
70	0xc00f5db6	-2.2400947
71	0xbf452aa1	-0.7701817
72	0x3ecb25c7	0.3967726
73	0x3f2b1743	0.6683237
74	0xbeb88c24	-0.3604442
75	0xbf7efa02	-0.9960023
76	0xbfcb82e7	-1.5899323
77	0xbf6c3376	-0.92266023
78	0x3f92ce4d	1.1469208
79	0x3da1c0de	0.078981146
80	0x3f1e7fdc	0.6191385
81	0x40904c73	4.509332
82	0x3f25aba4	0.6471503
83	0x409191cc	4.5490475
84	0xbe3a1875	-0.18173392
85	0x40ab742e	5.357932
86	0xc00aab65	-2.166711
87	0xbf4e90ca	-0.8068968
88	0xbf89058a	-1.0704815
89	0x4000a69d	2.0101693
90	0xbf2d8a97	-0.67789596
91	0xbefb741a	-0.49112016
92	0xbfcc0ddb	-1.5941728
93	0x3e3d0ef1	0.18462731
94	0xbfe41213	-1.7818016
95	0x3fc41ef9	1.5321952
96	0xbc995e38	-0.018721685
97	0x408e4cfe	4.4468985
98	0x401a3c30	2.4099236
99	0x3f8873e9	1.0660373
100	0x3fe423c5	1.7823416
101	0xbfa01e3c	-1.2509227
102	0xbf08072f	-0.5313596
103	0x3eb09ad6	0.3449313
104	0xbf176ebf	-0.5915336
105	0x408ce5dc	4.403059
106	0x3f839006	1.0278327
107	0xbd50edfe	-0.051008217
108	0x3f960034	1.1718812
109	0xbea98b4d	-0.3311409
110	0x4004e4eb	2.076472
111	0x3870909c	5.7355137e-05
112	0x3e9d63b7	0.3074014
113	0x4083cb6a	4.118581
114	0xbe8dd320	-0.27700138
115	0xbf8755fc	-1.0573115
116	0x4020f899	2.5151732
117	0xbfba71e4	-1.4566007
118	0x400336d5	2.0502217
119	0x4046aed0	3.1044197
120	0x3e801131	0.25013116
121	0x408e8d57	4.4547534
122	0x3fbd4912	1.4787924
123	0xc00a233d	-2.1584008
124	0xbde695ee	-0.112590656
125	0x3dff6456	0.124703094
126	0x405b2a0c	3.4244413
127	0xbb9091bb	-0.0044119037
128	0xc01a09a0	-2.4068375
129	0x401c42f2	2.441586
130	0xc008dbf4	-2.1384249
131	0x3f528963	0.82240885
132	0x4058ae4e	3.3856387
133	0xc039dbc5	-2.9040387
134	0xbfa74eb3	-1.3070892
135	0xc01be008	-2.4355488
136	0xbe8cd321	-0.2750483
137	0xbfdc747c	-1.7223048
138	0xc0220b9b	-2.5319583
139	0xbf9ac3a9	-1.2090961
140	0xbfea64aa	-1.831197
141	0xbfdd9b2c	-1.731298
142	0x3f6a21f8	0.9145808
143	0xbe3f5bc9	-0.18687357
144	0x3f058f63	0.52171916
145	0x402a8a33	2.664685
146	0x3eb89c48	0.36056733
147	0x404f6b0f	3.2409093
148	0xbe96daad	-0.2946371
149	0x406edef4	3.732358
150	0xbfcb7077	-1.5893697
151	0xbfe1867c	-1.7619166
152	0xbfed5c7f	-1.8543853
153	0x3f4a8d43	0.791218
154	0xbfeba4fc	-1.8409724
155	0xbf6b59a1	-0.9193364
156	0xbfd3742b	-1.6519827
157	0xbf0ba8fb	-0.5455472
158	0xbfb88229	-1.4414722
159	0x3fce749d	1.6129338
160	0xbe6ad693	-0.22933416
161	0x40041558	2.0638027
162	0x3ff46c23	1.9095501
163	0x3ed92cab	0.4241689
164	0x3fd501a3	1.6641124
165	0xbf6ddf98	-0.929193
166	0xbf84eb74	-1.0384355
167	0xbea7d402	-0.32778937
168	0xc002e7cd	-2.045398
169	0x403820ba	2.8769975
170	0xbd4933b4	-0.049121574
171	0xbfb02ca1	-1.376362
172	0x3f06a799	0.52599484
173	0xbfbff793	-1.4997429
174	0x3fb0c772	1.3810866
175	0x3e433da6	0.19066486
176	0x3eb652b1	0.35609964
177	0x4043eeb4	3.0614443
178	0xbfeb0c04	-1.8363042
179	0xbfbfe4a5	-1.4991652
180	0x3fabbfd5	1.3417917
181	0xbfc1ab1f	-1.5130347
182	0x401891ba	2.3838944
183	0x40225631	2.5365107
184	0x3f0e9426	0.55694807
185	0x4085812f	4.1720195
186	0x3f6fe7cc	0.9371307
187	0xc025a4c6	-2.588182
188	0x3e8cecc1	0.2752438
189	0xbe039391	-0.12849261
190	0x3fdcd5b6	1.7252719
191	0xc0144d2b	-2.31721
192	0x4024a58b	2.572604
193	0xbeae0472	-0.33987767
194	0x40aa0c44	5.3139973
195	0xbec6bef6	-0.38817567
196	0xbecf7d4b	-0.40525278
197	0x4102fbf3	8.186511
198	0x407df939	3.9683363
199	0x40b38a83	5.610658
200	0x40020cd3	2.0320327
201	0x3facbe4d	1.3495575
202	0x4083304b	4.099645
203	0x40bb7496	5.8579817
204	0x40c1ec3e	6.060088
205	0x40a5f0a4	5.185625
206	0xbeb5a970	-0.35480833
207	0xbfb5b9f8	-1.4197378
208	0xbdad2ca6	-0.08455782
209	0xbf103e90	-0.5634546
210	0xbcf20514	-0.029543437
211	0xbfe892c8	-1.8169794
212	0x3ea3d9dc	0.3200215
213	0xbf929a65	-1.1453367
214	0x402f43d9	2.738516
215	0x40628a31	3.5396845
216	0x40eb5cfe	7.3551016
217	0x3ff3b591	1.9039785
218	0x407e4748	3.9731007
219	0x407c4ea1	3.9422991
220	0x40be4638	5.9460716
221	0x404d2b82	3.2057805
222	0x4099e135	4.808741
223	0x3f930eaf	1.1488856
224	0xc0105f1e	-2.2558055
225	0xbf36c06d	-0.7138737
226	0xbf40f72f	-0.7537717
227	0x3d901043	0.07034352
228	0x3f60a48f	0.87751096
229	0x40118a33	2.27406
230	0x402be788	2.6860065
231	0xbfce884f	-1.6135348
232	0x40d25550	6.572914
233	0xbf7e403d	-0.9931677
234	0xbcc0a4ef	-0.023516146
235	0x40e8b39d	7.2719254
236	0xbf7cc954	-0.987447
237	0x40a1bb77	5.054134
238	0x3f9a94fd	1.2076718
239	0xbf7296d6	-0.9476141
240	0xbf14ce3c	-0.5812719
241	0x3be0bf61	0.0068587516
242	0x40afa4f9	5.4888883
243	0x40b9d93c	5.807768
244	0xbf073010	-0.5280771
245	0x40bae9e2	5.84105
246	0xbfa259a9	-1.2683612
247	0xbf97434f	-1.1817416
248	0xbfb9c56f	-1.4513377
249	0xbf9874e2	-1.191067
250	0xbf44abe0	-0.7682476
251	0x409aee5b	4.841596
252	0xc0037e7e	-2.0545955
253	0xbf40f17f	-0.75368494
254	0x3f1eebdf	0.6207866
255	0x40741d40	3.8142853

network.3.bias f4 [32]
0	0xc0883323	-4.2562423
1	0xc0680316	-3.6251884
2	0xc015f256	-2.342916
3	0xc07ff422	-3.9992757
4	0xc00dc995	-2.2154286
5	0xbfd40a78	-1.6565695
6	0xbfac37fb	-1.3454584
7	0xbf3154d5	-0.6927007
8	0xc0c64a4b	-6.196569
9	0xc04ae7e5	-3.1704037
10	0xc037aa38	-2.8697643
11	0xc0b9df3e	-5.8085012
12	0xc080e333	-4.0277343
13	0xbeadbc17	-0.33932564
14	0xc045ab15	-3.088567
15	0xbfaa5c6c	-1.3309455
16	0xc04ce72b	-3.2016094
17	0xbe249e2d	-0.16075964
18	0xc03fb2d8	-2.9952908
19	0xc029658d	-2.6468232
20	0xbff0fb86	-1.8826759
21	0xbfcaec42	-1.585335
22	0xc02b26b2	-2.6742368
23	0xc087627d	-4.2307725
24	0xbebbc6dc	-0.36675155
25	0xc0cd65de	-6.418685
26	0xc03cf0c9	-2.9521964
27	0xc07da2e2	-3.9630666
28	0xc053259a	-3.29917
29	0xc002af49	-2.0419486
30	0xc0a7c94c	-5.2433224
31	0xc056248c	-3.3459806

network.6.weight f4 [16, 32]
0	0xbe0cbc26	-0.13743648
1	0x3dc473ba	0.095923856
2	0xbe9da453	-0.30789432
3	0x3cd3161b	0.025767377
4	0xbe4ec8ca	-0.20193782
5	0x3f0b409d	0.5439547
6	0xbf0f08dc	-0.55872893
7	0xbe92ec1f	-0.2869577
8	0xbea6b6a8	-0.3256123
9	0x3e0bb081	0.1364155
10	0xbbe695a4	-0.0070368815
11	0xbd4c1bfd	-0.04983138
12	0xbe8af54d	-0.27140275
13	0xbe96face	-0.29488224
14	0x3e00493e	0.1252794
15	0xbe38bdea	-0.18041196
16	0xbdbc2036	-0.09185831
17	0xbe67fb6e	-0.22654507
18	0xbe5d1bcf	-0.2159264
19	0xbd505613	-0.050863337
20	0xbf07c629	-0.53036743
21	0xbde37ff0	-0.111083865
22	0xbdbd84db	-0.09253856
23	0xbde29644	-0.11063817
24	0x3c2eee06	0.010676866
25	0x3ee47531	0.4462066
26	0xbe9e5801	-0.30926517
27	0x3e2f41a2	0.1711488
28	0xbe3f417d	-0.18677326
29	0xbea84262	-0.32863146
30	0x3d9f0cc1	0.077661045
31	0xbeec822b	-0.4619306
32	0xbe834b2c	-0.2564329
33	0xbe87d2da	-0.26528054
34	0xbe1c1d14	-0.15245467
35	0xbd511cd5	-0.051052887
36	0x3e4d3a66	0.20041808
37	0xbe118be1	-0.14213516
38	0xbdb70fe6	-0.08938579
39	0x3deb85db	0.1150014
40	0x3e14cb00	0.14530563
41	0x3e53d341	0.20686056
42	0x3e8a7ce0	0.27048397
43	0x3e096e39	0.13420953
44	0x3edf6549	0.43631962
45	0xbe79dc7a	-0.24400511
46	0x3e5ef3de	0.21772715
47	0xbe6146ea	-0.21999708
48	0xbd0254ff	-0.03181934
49	0xbdd83075	-0.105561174
50	0x3dc40264	0.095707685
51	0x3ca9fde3	0.020750945
52	0xbe5a7ca8	-0.21336615
53	0xbe94a1ae	-0.29029602
54	0xbe501a11	-0.20322444
55	0xbdb5319b	-0.08847352
56	0xbf0e9fdf	-0.55712694
57	0x3df88157	0.121340446
58	0x3e1c0446	0.15236005
59	0x3ebc32e0	0.36757565
60	0xbe3a0c57	-0.1816877
61	0xbddf9189	-0.109164305
62	0xbe1bb094	-0.15204078
63	0xbe1a7901	-0.15085222
64	0xbe2b31c1	-0.16718198
65	0x3e087b17	0.13328205
66	0xbdc8c2ec	-0.098028034
67	0x3dd936db	0.10606166
68	0xbea316e9	-0.31853417
69	0xbe9abb4a	-0.30221015
70	0xbe3dbf78	-0.18530071
71	0xbe668027	-0.22509824
72	0xbd6d7d9a	-0.05798111
73	0xbe72ac56	-0.23698553
74	0xbe051c9f	-0.129992
75	0x3d5857ab	0.05281798
76	0xbc4e94ef	-0.012608751
77	0xbe0d8996	-0.13822016
78	0xbdebd627	-0.11515456
79	0x3eeef304	0.4666978
80	0x3e0e3735	0.13888247
81	0xbe2c3114	-0.16815597
82	0x3db064e0	0.086129904
83	0xbd17b3c8	-0.037036687
84	0xbd652f3b	-0.055953246
85	0xbe9ee83b	-0.31036553
86	0xbea2fb6c	-0.31832445
87	0x3e049696	0.12948069
88	0x3ed86ad8	0.42269015
89	0x3e89b1ca	0.26893455
90	0xbdec40b2	-0.11535777
91	0xbe688aa7	-0.22709142
92	0xbd118571	-0.03552765
93	0x3e76378b	0.24044625
94	0x3ecaf5a5	0.39640537
95	0xbeaa20fa	-0.33228284
96	0x3d7ca3e1	0.061679725
97	0x3d6e7028	0.05821243
98	0x3dd5a59f	0.1043198
99	0xbf110233	-0.5664398
100	0xbd8f382d	-0.069931366
101	0xbf073128	-0.5280938
102	0xbe6e3a64	-0.23264462
103	0xbe215e70	-0.15758681
104	0xbef7e4e4	-0.48416817
105	0xbe5a23f2	-0.21302775
106	0xbe8d5ce6	-0.27609938
107	0x3e570114	0.20996505
108	0xbe0b2aa8	-0.13590491
109	0xbe69cfa8	-0.22833121
110	0x3d43a081	0.04776049
111	0xbece5d11	-0.4030538
112	0x3cfbab55	0.030721346
113	0xbf3a28ba	-0.72718394
114	0xbf680d1d	-0.9064501
115	0xbf17ecd6	-0.5934576
116	0xbd8c708e	-0.068574056
117	0x3d6c6f51	0.057723347
118	0xbdcbd587	-0.099528365
119	0xbe376aff	-0.1791191
120	0xbf60aff1	-0.87768465
121	0x3e135bd1	0.14390494
122	0xbe695c7d	-0.22789188
123	0xbe947d82	-0.29002005
124	0x3caa51c3	0.02079094
125	0xbec22a36	-0.3792283
126	0x3e19ddc6	0.15026006
127	0x3d398eab	0.045302074
128	0x3e4fa7f0	0.20278907
129	0x3e74a923	0.23892646
130	0x3e6a64fd	0.22890086
131	0x3d6c9328	0.057757527
132	0x3da99b7c	0.082816094
133	0xbecab289	-0.39589337
134	0x3ea5548d	0.3229107
135	0x3e923fc2	0.28564268
136	0x3e99a90d	0.30011788
137	0xbe8c5427	-0.27407953
138	0xbeae1a12	-0.34004265
139	0x3cedd635	0.029032806
140	0xbe8d1571	-0.2755542
141	0xbe2c9f03	-0.16857533
142	0x3ceb7ef1	0.028747054
143	0xbe831816	-0.25604314
144	0x3f08d57b	0.53450745
145	0xbf26351b	-0.6492478
146	0xbf7d87ed	-0.9903553
147	0x3e2b4d57	0.16728722
148	0x3e913d92	0.28367287
149	0x3e501f3e	0.20324418
150	0x3e72a31e	0.23695037
151	0xbdbfb984	-0.09361556
152	0xbf0f9dff	-0.5610046
153	0xbccc24bf	-0.024919866
154	0xbd0c5fd3	-0.034271073
155	0xbe009370	-0.12556243
156	0x3ddacb87	0.10683351
157	0xbe81d260	-0.25355816
158	0x3de7b6b4	0.11314145
159	0xbefe39fa	-0.49653608
160	0xbeb7afe2	-0.35876375
161	0xbc03fce8	-0.008055903
162	0xbe119d29	-0.14220108
163	0xbec4bd27	-0.38425562
164	0xbe303d1d	-0.17210813
165	0xbe73c83b	-0.2380685
166	0xbdbd0a43	-0.09230473
167	0xbe9b12be	-0.30287737
168	0xbea29f15	-0.31761995
169	0xbe0ed261	-0.1394744
170	0x3bcbea1f	0.006222978
171	0x3d205d0f	0.039151248
172	0xbe753529	-0.2394606
173	0xbe644624	-0.22292382
174	0xbe7f44d0	-0.24928594
175	0xbed6e1d2	-0.41969162
176	0x3ef6d1b1	0.48206857
177	0x3d8e4078	0.0694589
178	0xbebd497c	-0.36970127
179	0xbd9103bf	-0.07080793
180	0xbd7c7743	-0.061637174
181	0xbee27044	-0.44226277
182	0xbdfff53b	-0.12497946
183	0xbe5f4c21	-0.21806385
184	0xbf55d30f	-0.83525175
185	0xbd346797	-0.044044103
186	0xbec61d5e	-0.3869428
187	0xbe8a95ab	-0.27067313
188	0x3e17d5df	0.14827679
189	0xbeb7f3d6	-0.3592822
190	0x3d1e6972	0.03867478
191	0xbe7f87f2	-0.24954203
192	0xbd1f376c	-0.038871214
193	0x3dcd05da	0.10010882
194	0xbc3b13f1	-0.011418329
195	0xbd039fb8	-0.03213474
196	0xbde84585	-0.11341385
197	0xbd7952bf	-0.06086993
198	0xbe028283	-0.12745099
199	0xbf2ba41c	-0.67047286
200	0x3e367e19	0.1782154
201	0x3e66f98f	0.22556137
202	0x3ced7bba	0.028989661
203	0xbe97341d	-0.29531947
204	0x3e5cb603	0.21553807
205	0xbe1bcbf2	-0.15214518
206	0xbdb47a00	-0.08812332
207	0x3eaa243d	0.33230773
208	0x3d9fcda1	0.078028925
209	0x3e88c53d	0.2671298
210	0xbe067a34	-0.13132554
211	0x3d344c18	0.04401788
212	0xbddb13b6	-0.10697119
213	0xbf29c4a8	-0.663157
214	0xbe8c9423	-0.2745677
215	0xbe67df42	-0.2264376
216	0x3ea2ae6a	0.31773692
217	0xbe15d741	-0.14632894
218	0x3d60cbba	0.05488179
219	0xbe8489ab	-0.25886282
220	0x3e032ac5	0.12809284
221	0xbe3685d3	-0.17824487
222	0x3e0671bb	0.13129322
223	0xbe67e8ac	-0.22647351
224	0xbdf38346	-0.11890273
225	0x3d4258de	0.04744803
226	0xbe5441e1	-0.20728256
227	0xba84c45a	-0.0010129318
228	0x3d2024cc	0.039097592
229	0xbe4b94b9	-0.19880952
230	0xbdd75238	-0.10513729
231	0xbebb4493	-0.36575755
232	0xbe68f8b5	-0.22751124
233	0xbe73ed2f	-0.23820947
234	0xbe850654	-0.2598139
235	0xbc5b4272	-0.013382541
236	0xbdcc740f	-0.09983074
237	0xbf3cd251	-0.7375842
238	0xbe49adb2	-0.19695166
239	0xbe646c2e	-0.22306892
240	0xbe89ca03	-0.26911935
241	0xbecce65d	-0.40019503
242	0xbec91e44	-0.39280903
243	0xbe0f6451	-0.14003111
244	0x3c2138cc	0.009840202
245	0xbeabccfb	-0.33554825
246	0xbdc62c62	-0.09676434
247	0xbe338c33	-0.1753395
248	0x3dc8d279	0.098057695
249	0x3d3f9e27	0.046781685
250	0xbe006b44	-0.12540919
251	0x3d592ad0	0.053019345
252	0xbe59be46	-0.2126399
253	0xbd28de68	-0.041227728
254	0x3e1da100	0.15393448
255	0x3e061f84	0.1309796

network.6.bias f4 [16]
0	0x401e021d	2.468879
1	0x3e44ac16	0.1920627
2	0x401ad83b	2.4194477
3	0xc008d71a	-2.1381288
4	0xbfddfd95	-1.7343012
5	0x3f4c2ad0	0.79752827
6	0x3fe4f456	1.7887065
7	0xbdee782c	-0.11644015
8	0xbe00f50b	-0.12593476
9	0x3f614e11	0.88009745
10	0xbfa21941	-1.2663957
11	0x3e99faaf	0.3007407
12	0xbfce254d	-1.6105133
13	0x3ffb3339	1.9625007
14	0x3ff08cdc	1.8792987
15	0x4024da69	2.5758307

network.8.weight f4 [1, 16]
0	0xbd4a12f4	-0.04933448
1	0xbced1adf	-0.028943477
2	0xbcbc2de4	-0.022971101
3	0xbcb86968	-0.0225112
4	0x3d9da5fc	0.07697675
5	0xbe10c9d4	-0.14139491
6	0xbcf8e036	-0.03038035
7	0xbdd20a7b	-0.10255905
8	0x3ddbec98	0.10738486
9	0xbdaab7f5	-0.08335868
10	0x3dd56523	0.10419681
11	0xbc36d5bc	-0.011159357
12	0xbad25f0e	-0.0016050057
13	0xbd040a20	-0.03223622
14	0xbcabc5aa	-0.020968277
15	0xbd8621e0	-0.0654943
