models/fraud_detector_model.pth (torch, 420998 bytes, 33 tensors)

input_bn.weight f4 [29]
0	0x3f7b2fa0	0.98119545
1	0x3f7a1f9c	0.9770448
2	0x3f78be76	0.9716562
3	0x3f8170a8	1.0112505
4	0x3f662a81	0.89908606
5	0x3f7ba8fa	0.9830471
6	0x3f596022	0.8491231
7	0x3f67c90b	0.9054114
8	0x3f811f26	1.0087631
9	0x3f5d174f	0.8636369
10	0x3f76221e	0.9614581
11	0x3f6f447d	0.9346388
12	0x3f65387b	0.8953931
13	0x3f8411b9	1.0317909
14	0x3f5fe3c3	0.8745691
15	0x3f5e99c7	0.86953396
16	0x3f7b1936	0.98085344
17	0x3f823598	1.0172606
18	0x3f680188	0.90627337
19	0x3f571df0	0.84030056
20	0x3f69df39	0.91356236
21	0x3f7d10e6	0.9885391
22	0x3f46b424	0.7761862
23	0x3f6efc67	0.93353885
24	0x3f707b7b	0.93938416
25	0x3f5cd377	0.8626017
26	0x3f611630	0.8792448
27	0x3f6cb3b7	0.92461723
28	0x3eb9a2a0	0.36256886

input_bn.bias f4 [29]
0	0x3cba928c	0.022774957
1	0x3b4b434c	0.0031015454
2	0xbc63a7aa	-0.013894955
3	0xbc88ae35	-0.01668463
4	0xbb2cc6cc	-0.002636361
5	0x3b676140	0.0035305768
6	0xbc9f84d3	-0.019472515
7	0xbcd1536b	-0.025552472
8	0x3d0558c5	0.03255536
9	0xbcd327d9	-0.025775837
10	0x3cead0f6	0.028664093
11	0x3cd34fcb	0.025794884
12	0x3c341efe	0.010993717
13	0xbc0555a2	-0.008138092
14	0x39862f3d	0.00025593667
15	0xbd2ebb86	-0.042659305
16	0xbcdbc5e3	-0.026827758
17	0x3c7cc625	0.015428101
18	0xbcf90d22	-0.03040177
19	0x3c9957fd	0.018718714
20	0xbc38e3e8	-0.011284806
21	0xbc25413d	-0.010086355
22	0x3b723e8d	0.0036963553
23	0x3d168391	0.036746565
24	0x3cb771c9	0.022393124
25	0xbcca16c8	-0.024669066
26	0x3ca237a0	0.019801915
27	0x3c496c0d	0.012293828
28	0xba914dd8	-0.0011085821

input_bn.running_mean f4 [29]
0	0x3c1976a5	0.009366666
1	0xbc5a7823	-0.013334307
2	0xbae258d4	-0.0017268904
3	0xbca81e87	-0.02052237
4	0x3cc057f0	0.023479432
5	0x3c80e143	0.015732413
6	0x3bb79256	0.0056021614
7	0xbc882853	-0.01662079
8	0xbbd3d7c3	-0.00646493
9	0x3ad181a0	0.0015984066
10	0x3afabc54	0.0019129612
11	0x3b998605	0.004685166
12	0xbc2d2b9e	-0.010569481
13	0x3c42deb0	0.011893913
14	0xbb9dfda8	-0.004821498
15	0x3b32f21f	0.002730496
16	0x3a9a84f8	0.0011788895
17	0xbc89703a	-0.016777147
18	0xbbba56ed	-0.005686632
19	0x3c19834c	0.0093696825
20	0x3b9e1c15	0.004825125
21	0x3c6e2288	0.0145346
22	0xbc503556	-0.012708029
23	0x3b0482c6	0.0020219549
24	0xbc98bd84	-0.018645056
25	0x3d118dd4	0.03553565
26	0xbb8342fa	-0.004005787
27	0x3c5dcca6	0.0135375615
28	0xbbca32e4	-0.0061706174

input_bn.running_var f4 [29]
0	0x3f773091	0.9655848
1	0x3f640358	0.890676
2	0x3f72bfaf	0.94823736
3	0x3f7edf91	0.99559885
4	0x3f79baad	0.9755047
5	0x3f7a5a75	0.97794276
6	0x3f513751	0.8172503
7	0x3f6572da	0.89628375
8	0x3f759cc9	0.9594236
9	0x3f72fe85	0.94919616
10	0x3f7e6821	0.9937764
11	0x3f7dd4b5	0.9915269
12	0x3f7aeb1d	0.98015004
13	0x3f807c87	1.0038003
14	0x3f73e03c	0.9526403
15	0x3f8081a3	1.0039562
16	0x3f81ed3b	1.0150522
17	0x3f77cf29	0.96800476
18	0x3f86ae7a	1.0521996
19	0x3f575c5c	0.84125304
20	0x3f743f2f	0.9540891
21	0x3f7b8aad	0.9825848
22	0x3f71ded1	0.94480616
23	0x3f89cbc6	1.0765312
24	0x3f81217b	1.0088342
25	0x3f7d9013	0.99047965
26	0x3f73f5fd	0.95297223
27	0x3f5e5f2a	0.8686396
28	0x3eacee66	0.33775634

encoder1.weight f4 [256, 29]
0	0xb9f4953d	-0.00046650498
1	0x3d93ffc0	0.07226515
2	0xbbe495df	-0.006975874
3	0xbe0c8a4d	-0.13724633
4	0x3e758c78	0.23979366
5	0xbe132fa6	-0.14373645
6	0x3d59eade	0.053202502
7	0xbdb0e1f6	-0.08636849
8	0xbe36fe41	-0.17870428
9	0x3e077673	0.13228779
10	0x3e2cc4ca	0.16871944
11	0x3c6b08e5	0.014345382
12	0xbd69c546	-0.0570729
13	0xbb147c23	-0.0022657
14	0xbe07bad9	-0.1325487
15	0x3dfe3090	0.12411606
16	0xbdbdcdf1	-0.09267796
17	0x3e76e200	0.2410965
18	0x3ea0d6da	0.3141392
19	0xbd3f8172	-0.046754308
20	0xbe52ebb8	-0.20597732
21	0xbdfb0837	-0.12257426
22	0xbc144fa8	-0.009052195
23	0xbe40b7e3	-0.18820147
24	0xbc2b7dae	-0.010466976
25	0xbd6d4d91	-0.0579353
26	0xbe01d738	-0.12679756
27	0xbdb43e42	-0.08800937
28	0x3ba7966a	0.0051143663
29	0x3af0728d	0.0018344686
30	0xbe292aec	-0.1652028
31	0xbda32b95	-0.07967297
32	0x3d5f5afc	0.05453013
33	0xbe77edfa	-0.24211875
34	0xbd1d828a	-0.03845457
35	0x3de7ce30	0.11318624
36	0x3ddbc1ce	0.10730325
37	0xbce30bcc	-0.027715586
38	0xbe24f74f	-0.16109966
39	0x3e1a3c34	0.15062028
40	0xbda2a808	-0.07942206
41	0x3d09c313	0.033633303
42	0x3d8d944b	0.0691305
43	0x3de36869	0.11103899
44	0xbd453b1b	-0.04815207
45	0xbe1149d7	-0.14188324
46	0x3e2fdb20	0.17173433
47	0x3d00f634	0.031484798
48	0x3ea6d334	0.3258301
49	0x3d86e88b	0.06587323
50	0x3d85e1c7	0.06537204
51	0x3d1cc132	0.038270183
52	0xbdf767c2	-0.12080337
53	0xbdf8e6bb	-0.12153383
54	0xbe4ab951	-0.19797255
55	0x3c3b0979	0.011415833
56	0xbd8d43fa	-0.06897731
57	0x3c7c32b9	0.015392953
58	0x3c17c6db	0.009263719
59	0x3cd59870	0.026073664
60	0x3c67b749	0.01414282
61	0x3cad7b57	0.021176977
62	0xbdb40af9	-0.08791155
63	0x3da30bd0	0.079612374
64	0x3d0aecef	0.033917364
65	0x3df750e5	0.12075976
66	0xbe24a604	-0.16078955
67	0x3d8ae20b	0.067813955
68	0x3e77c64f	0.24196742
69	0xbe37e784	-0.1795941
70	0xbe081fee	-0.1329343
71	0x3e6de419	0.23231544
72	0xbe018a88	-0.12650502
73	0x3e56be19	0.20970954
74	0x3d94823c	0.07251403
75	0x3e6dfb3e	0.23240373
76	0x3d9c2d97	0.07625883
77	0x3c56f8b3	0.013120818
78	0x3e089949	0.13339724
79	0x3d1443d9	0.036197517
80	0x3e016afd	0.12638469
81	0x3e5ef498	0.21772993
82	0xbe1e7b9f	-0.15476845
83	0x3e41438b	0.18873422
84	0xbdde75a5	-0.10862283
85	0x3de94b84	0.113913566
86	0x3d45134b	0.048114102
87	0x3d469899	0.048485372
88	0xbd83b2d9	-0.06430597
89	0x3ddc454f	0.10755407
90	0xbd145257	-0.036211338
91	0xbe2f6007	-0.17126475
92	0xbdd114ea	-0.10209067
93	0xbdb8c0b1	-0.09021128
94	0x3a8b0920	0.0010607578
95	0x3d80fa55	0.06297747
96	0xbe0e9650	-0.13924527
97	0xbe3563e3	-0.17713885
98	0xbd409c76	-0.047024213
99	0xbba09b72	-0.004901343
100	0x3d05dcb0	0.032681167
101	0x3e6a9f83	0.22912411
102	0x3e0da2d3	0.13831644
103	0xbd884154	-0.06653085
104	0x3e47475a	0.19460812
105	0x3d0028e8	0.03128901
106	0x3e0102ec	0.12598771
107	0xbe415625	-0.18880518
108	0xbd912233	-0.07086601
109	0x3e3dbe0a	0.18529525
110	0x3c3a87c1	0.011384905
111	0x3ce89454	0.02839104
112	0x3e71646b	0.23573463
113	0xbd2c25e7	-0.042028334
114	0xbe37ea2a	-0.1796042
115	0x3d9508c4	0.072770625
116	0xbe0c5ee6	-0.13708076
117	0x3d2dc1a9	0.042421017
118	0x3df07d6c	0.11742672
119	0xbd9b0178	-0.075686395
120	0xbd6060c6	-0.05477979
121	0x3d1158e8	0.03548518
122	0x3cc2fec0	0.023803115
123	0x3de30bb9	0.1108622
124	0x3de53eef	0.11193644
125	0xbd689630	-0.056783855
126	0x3e8acc32	0.27108914
127	0xbe36e486	-0.17860612
128	0xbe3b2904	-0.18277365
129	0xbd4ba1e6	-0.049714945
130	0x3de8b677	0.113629274
131	0x3d8117a3	0.063033365
132	0xbd6e7732	-0.058219142
133	0xbd63c9fb	-0.055612545
134	0xbe596eb9	-0.21233644
135	0x3c013602	0.007886412
136	0x3d8921c1	0.06695891
137	0xbda232af	-0.079198234
138	0x3ddc9b1a	0.10771771
139	0xbb90a91d	-0.004414691
140	0xbe5e9d9b	-0.21739809
141	0x3d001898	0.031273454
142	0x3e8b7e7a	0.2724493
143	0xbdda8f1f	-0.106718294
144	0x3dd74088	0.10510355
145	0x3dec6420	0.11542535
146	0x3d8d9c65	0.069145955
147	0x3de898cf	0.11357271
148	0x3e70d7ef	0.23519872
149	0x3c860bce	0.01636305
150	0x3de048b5	0.10951368
151	0x3d519a3b	0.051172476
152	0x3df0c447	0.11756187
153	0x3df2ec7c	0.11861512
154	0x3d4bd4c1	0.049763445
155	0xbe7e8a0a	-0.24857345
156	0x3e95cfa6	0.29259986
157	0xbe27c2d3	-0.16382913
158	0x3cd4dad4	0.025983252
159	0x3d55fd91	0.052243773
160	0xbda4f6d4	-0.08054891
161	0x3e782c11	0.2423556
162	0xbd728ded	-0.059217382
163	0xbc3ca35c	-0.011513557
164	0xbded647a	-0.1159143
165	0x3dc891d7	0.09793442
166	0xbd4c217d	-0.049836624
167	0x3dbe6bd6	0.09297912
168	0xbd3060e6	-0.04306116
169	0xbd7b1363	-0.061297785
170	0xbde785fd	-0.11304853
171	0x3d09dce7	0.033657935
172	0xbd200270	-0.039064825
173	0xbe992cb8	-0.2991693
174	0xbab6554f	-0.0013910922
175	0xbe207d1f	-0.1567273
176	0x3cc4cd86	0.024023782
177	0xbe089e62	-0.13341668
178	0xbe27cda2	-0.16387036
179	0xbdd1c589	-0.10242755
180	0x3d817919	0.06321926
181	0x3c2069bc	0.009790834
182	0xbe278fc4	-0.16363436
183	0x3e2350db	0.15948813
184	0xbd828333	-0.063726805
185	0xbddccf44	-0.1078172
186	0x3d7deaa0	0.061991334
187	0x3e2e54ea	0.1702458
188	0xbca61a34	-0.020276166
189	0xbcfb372b	-0.030665955
190	0xbd6f3869	-0.058403406
191	0xbdb27b7c	-0.08714959
192	0x3d82817a	0.06372352
193	0xbd7e2e5d	-0.062055934
194	0x3eea0c2a	0.45712405
195	0x3ee3b633	0.44474944
196	0xbd21f045	-0.03953578
197	0xbd2a6c85	-0.0416074
198	0x3d20c0a8	0.03924623
199	0x3a727563	0.00092490594
200	0x3d3983c6	0.045291685
201	0xbcda0c26	-0.026617121
202	0x3d7857a9	0.060630474
203	0x3c1fcd82	0.009753587
204	0xbdf254ac	-0.11832556
205	0xbe84777c	-0.2587241
206	0xbe572c58	-0.2101301
207	0xbe0c8312	-0.13721874
208	0x3e455da3	0.19274001
209	0x3e579790	0.2105391
210	0x3a8947f0	0.001047371
211	0xbe0fbc28	-0.1403662
212	0xbe3b3440	-0.1828165
213	0xbd9fa93a	-0.07795949
214	0xbdf0d812	-0.11759962
215	0x3da5ae82	0.08089925
216	0xbdc31231	-0.09524954
217	0xbe78c09f	-0.24292229
218	0xbe4c81ae	-0.19971344
219	0xbd22307b	-0.039597016
220	0x3d8aa8d1	0.067704804
221	0x3d3da9e8	0.046304613
222	0xbbb9ea70	-0.005673699
223	0xbe6fb8d2	-0.23410347
224	0x3e05fdba	0.1308507
225	0xbd934122	-0.071901575
226	0xbe1bff81	-0.15234186
227	0x3d179100	0.037003517
228	0x3d2109fd	0.039316166
229	0x3dba225c	0.09088585
230	0xbd93d3fd	-0.07218168
231	0x3e0986c1	0.13430311
232	0x3dcd848f	0.10035049
233	0xbddfd29d	-0.10928843
234	0xbe2858de	-0.1644015
235	0x3e55b787	0.20870791
236	0x3dd3254c	0.10309848
237	0x3e584d62	0.21123269
238	0x3d2653bf	0.04060721
239	0x3e3b2f79	0.18279828
240	0x3cb5b615	0.02218155
241	0xbda28de6	-0.07937221
242	0xbdb0fda1	-0.08642126
243	0x3e0a318b	0.13495462
244	0xbe88add1	-0.2669511
245	0xbd523397	-0.05131873
246	0xbcd9f338	-0.026605234
247	0x3dc61244	0.09671453
248	0xbe34ee67	-0.17669068
249	0xbe7726eb	-0.2413594
250	0x3c8f575d	0.017497713
251	0xbdbc52d2	-0.09195484
252	0xbe07cb6b	-0.13261192
253	0xbe366eb5	-0.17815669
254	0xbdcf4c63	-0.101219915
255	0x3de46461	0.11151958

encoder1.bias f4 [256]
0	0x3dc016ee	0.093793735
1	0x3c856fad	0.016288603
2	0x3cb76497	0.022386832
3	0x3e222d99	0.15837707
4	0xbd9c81ff	-0.07641982
5	0xbdae5710	-0.085126996
6	0x3db7c972	0.089739695
7	0x3e015308	0.1262933
8	0x3e018e18	0.1265186
9	0xbda99011	-0.082794316
10	0xbbf4c4b4	-0.007469738
11	0xbdbe0831	-0.09278906
12	0xbe142fc6	-0.14471349
13	0x3d9b8ed8	0.07595605
14	0x3d805d45	0.0626779
15	0x3dea2b7f	0.114340775
16	0x3df7446f	0.120735995
17	0x3c84714b	0.016167304
18	0x3ac75ade	0.0015209576
19	0x3e05a7d0	0.13052297
20	0xbd4a6212	-0.049409933
21	0xbd69c30f	-0.057070788
22	0xbdd9f064	-0.10641554
23	0x3df2bcf4	0.11852446
24	0xbdf758b0	-0.12077463
25	0x3c82cd15	0.015966931
26	0xbd888ca6	-0.066674516
27	0x3df107a3	0.11769035
28	0x3c29489e	0.010332255
29	0x3d99c1af	0.07507645
30	0xbe22ebdd	-0.15910287
31	0x3ddac76e	0.106825694
32	0x3df6331a	0.120214656
33	0xbdf364a1	-0.11884428
34	0xbd5d1057	-0.05397066
35	0x3dce1e11	0.100643285
36	0x3d72d4b2	0.059284873
37	0x3e142131	0.14465787
38	0x39ad3990	0.0003304002
39	0x3c9b6d74	0.01897309
40	0xbd1ff8d6	-0.039055668
41	0xbdc52c02	-0.096275344
42	0x3dfe9ef3	0.12432661
43	0x3d278c81	0.04090548
44	0x3e2bfdf2	0.16796091
45	0xbe1000cb	-0.14062802
46	0x3b681458	0.0035412516
47	0x3ce90858	0.028446361
48	0x3dab8a47	0.08375984
49	0xbe09908f	-0.13434051
50	0xbc06cbd9	-0.008227312
51	0x3d9c955d	0.07645676
52	0x3d84ac45	0.0647817
53	0xbd81c324	-0.06336048
54	0xbe0a0edd	-0.13482232
55	0x3d7168d3	0.05893786
56	0xbdd96de1	-0.10616661
57	0x3dc47a27	0.09593611
58	0x3d99780d	0.07493601
59	0x3d23a0a2	0.039948113
60	0xbd20fea1	-0.039305333
61	0xbdd7202a	-0.10504182
62	0x3dfc369c	0.123151034
63	0xbb020d79	-0.0019844456
64	0x3e0e6e89	0.13909353
65	0x3d928756	0.071547195
66	0x3d50e4c2	0.05099941
67	0xbcd8d0c0	-0.026466727
68	0xbdc49a7f	-0.0959978
69	0x3e0a5b63	0.13511424
70	0xbe242a31	-0.1603172
71	0xbb11a6da	-0.0022224695
72	0x3e30f99f	0.17282723
73	0x3df12bba	0.11775918
74	0xbded13a9	-0.115760155
75	0x3d9a6e67	0.07540589
76	0xbd4c0d0c	-0.04981713
77	0xbe139f0b	-0.14416139
78	0x3d938eaf	0.07204949
79	0x3d2dcc0b	0.04243092
80	0x3de08475	0.10962764
81	0xbcae93f5	-0.021310786
82	0xbe1ea660	-0.15493155
83	0x3d9dccc5	0.07705072
84	0xbccf3140	-0.025292039
85	0xbca7eb97	-0.02049808
86	0x3dbec17b	0.09314247
87	0x3c221567	0.009892798
88	0xbdd2feee	-0.1030253
89	0xbe0d15cb	-0.13777845
90	0x3db46762	0.08808781
91	0x3cf1c0cf	0.029510884
92	0xbe222ba2	-0.15836957
93	0x3d1c554a	0.038167275
94	0x3e008afd	0.1255302
95	0xbdbcaf73	-0.09213152
96	0x3dfd5f61	0.12371708
97	0xbda393bd	-0.07987163
98	0x3db5dcfa	0.088800386
99	0x3c4a10f3	0.012333143
100	0xbd173557	-0.036916103
101	0xbdf08266	-0.117436215
102	0x3c64e5eb	0.013970832
103	0x3e18646d	0.1488206
104	0x3cbff5ba	0.023432601
105	0xbda25f18	-0.07928294
106	0x3d15dd2b	0.036587875
107	0x3c00a7d5	0.007852514
108	0x3b3ee711	0.0029129426
109	0x3d8cbdf2	0.06872167
110	0xbd044ece	-0.032301717
111	0x3da0aaf1	0.078451045
112	0x3e08bea7	0.13353978
113	0x3e0807ad	0.13284178
114	0xbd0dcd01	-0.034619335
115	0xbe0767bd	-0.13223167
116	0xbd9e11e9	-0.0771826
117	0x3de123d0	0.10993159
118	0x3c58ddc6	0.013236469
119	0xbbc9303b	-0.0061397827
120	0xbd9b475c	-0.0758197
121	0x3e0ece01	0.13945772
122	0x3c1098f9	0.008825534
123	0xbd5c750a	-0.053822555
124	0xbc5f0eac	-0.013614338
125	0x3daf5a24	0.08562115
126	0x3ddc503c	0.10757491
127	0x3e13ee61	0.14446403
128	0x3d7e9b74	0.06215997
129	0xbdea4b72	-0.11440171
130	0xbe027b84	-0.1274243
131	0xbd0d99dd	-0.034570564
132	0xbe057da6	-0.13036212
133	0x3d7d00e4	0.061768427
134	0xbd03caf2	-0.032175966
135	0x3d720891	0.0590902
136	0x3c727209	0.014797696
137	0xbe03916b	-0.12848441
138	0x3dfcef99	0.12350387
139	0x3dac1747	0.08402877
140	0x3e0e9249	0.13922991
141	0x3ddcf4a8	0.10788852
142	0xbe125709	-0.14291014
143	0xbe27b821	-0.16378833
144	0x3d7eb509	0.062184367
145	0xbe1f0013	-0.15527372
146	0xbca21c55	-0.0197889
147	0x3e0a889e	0.13528678
148	0xbe18cd6c	-0.14922112
149	0x3d6601e3	0.056154143
150	0xbe1c7c87	-0.15281878
151	0x3d800d83	0.06252577
152	0xbda4e2cd	-0.08051071
153	0x3c4c4a6b	0.0124689145
154	0x3e238a71	0.1597078
155	0x3cbe4de8	0.023230508
156	0x3de19965	0.11015586
157	0x3d7068a0	0.05869353
158	0xbd612855	-0.054970104
159	0xbd5fd621	-0.05464757
160	0xbd889f76	-0.0667104
161	0xbd2dee30	-0.04246348
162	0xbdcb2e46	-0.09920935
163	0xbe1521da	-0.14563695
164	0x3deb68a3	0.11494567
165	0xbc3d9caf	-0.011573001
166	0x3d963621	0.07334543
167	0x3e0a4707	0.13503657
168	0x3e06358d	0.13106366
169	0xbe0de120	-0.1385541
170	0x3d851c09	0.06499488
171	0xbe058573	-0.13039188
172	0xbcd5f27a	-0.026116598
173	0x3da8c997	0.08241575
174	0x3dd754e1	0.10514236
175	0xbc933db0	-0.01797375
176	0xba3d9966	-0.0007232636
177	0xbdf4b179	-0.11947913
178	0x3dea9bf4	0.11455527
179	0x3e01ea24	0.12686974
180	0xbdfdf0d2	-0.123994485
181	0xbde52ad7	-0.11189812
182	0x3bf11bce	0.007358051
183	0xbd54910a	-0.051896133
184	0xbe028fed	-0.12750216
185	0x3e27f78f	0.1640303
186	0x3d3258ed	0.043541837
187	0xbe0605c4	-0.13088137
188	0x3cb32aa5	0.02187092
189	0xbe215504	-0.15755087
190	0x3ca48c84	0.020086534
191	0xbdd8b3fb	-0.105812036
192	0xbcb2c9fd	-0.021824831
193	0x3c62a091	0.013832227
194	0x3d8c8488	0.06861216
195	0xbc872db6	-0.016501289
196	0xbd0d3186	-0.034471057
197	0x3d274bc4	0.04084374
198	0x3b6046b7	0.0034221837
199	0x3db929f8	0.09041208
200	0xbe072816	-0.13198885
201	0x3e19c019	0.15014686
202	0xbd0513e7	-0.032489683
203	0x3da78a36	0.081806585
204	0xbda290ce	-0.079377756
205	0x3de0c409	0.10974891
206	0x3e032f45	0.12811
207	0xbbbde21d	-0.005794777
208	0xbd886bce	-0.06661187
209	0x3dc1b812	0.09458937
210	0xbdc0536b	-0.09390911
211	0x3e1ae6bb	0.15127079
212	0x3e2b4f25	0.1672941
213	0x3df9ff8a	0.12206943
214	0xbc854ba3	-0.016271418
215	0xbd416cf8	-0.04722306
216	0x3de7b6a7	0.11314135
217	0xbc4e945a	-0.012608612
218	0xbdb63ff7	-0.08898919
219	0xbd02fcf2	-0.03197951
220	0xbd8c4234	-0.06848565
221	0xbe0de3b6	-0.13856396
222	0x3abd32be	0.0014434678
223	0xbd65f8e3	-0.05614556
224	0xbdcf37ce	-0.10118066
225	0x3ddc45a2	0.10755469
226	0xbdab5f8d	-0.08367834
227	0x3d0e2a22	0.03470815
228	0x3dbb3865	0.09141616
229	0x3de3b442	0.11118366
230	0x3e28d675	0.16488059
231	0xbd883694	-0.06651035
232	0xbd440dc9	-0.04786471
233	0xbcea10e7	-0.028572513
234	0xbdedab7a	-0.11604972
235	0x3e2dd936	0.1697739
236	0xbe0104e4	-0.12599522
237	0x3d0f2c93	0.03495462
238	0xbe12e00c	-0.1434328
239	0x3dcf6b6e	0.101279125
240	0x3e2a63aa	0.16639581
241	0xbdc40fc7	-0.09573322
242	0x3dde3105	0.108491935
243	0xbda83932	-0.08214034
244	0xbd856132	-0.06512679
245	0x3dfc97d5	0.12333647
246	0x3da8d4a0	0.0824368
247	0xbe2f7672	-0.17135027
248	0x3d3f37a3	0.04668392
249	0xbdb636e0	-0.08897185
250	0x3da4aa1a	0.08040257
251	0xbe1c82be	-0.15284249
252	0xbc81fb9d	-0.015867049
253	0xbcc42564	-0.02394361
254	0xbd93c736	-0.07215731
255	0xbe0291fc	-0.12751001

encoder2.weight f4 [128, 256]
0	0xbdf280f2	-0.118410006
1	0xbc97cfe5	-0.018531749
2	0xbe5e5d32	-0.21715239
3	0xbd0d6913	-0.034524035
4	0xbe140374	-0.14454442
5	0x3dccbc6c	0.09996876
6	0xbd8089d2	-0.06276287
7	0x3d02f830	0.03197497
8	0xbd39cb60	-0.04535997
9	0x3de347f7	0.110977106
10	0xbcc520b4	-0.024063446
11	0xbe39c854	-0.18142825
12	0x3bec7571	0.0072161485
13	0xbde9edd2	-0.11422314
14	0xbdea32a5	-0.11435441
15	0xbc921275	-0.017831067
16	0xbe536080	-0.2064228
17	0xbd6b45f9	-0.057439778
18	0xbd804869	-0.06263811
19	0x3d32611e	0.04354965
20	0xbd786079	-0.06063888
21	0xbda4a32e	-0.080389366
22	0xbc9f3816	-0.019435924
23	0xbd403c16	-0.046932302
24	0xbdd4afba	-0.1038508
25	0xbd4cadc7	-0.049970414
26	0x3b6a0821	0.0035710412
27	0xbd129869	-0.03578988
28	0xbd184849	-0.03717831
29	0x3d292069	0.041290674
30	0x3ad32abd	0.001611076
31	0xbdcb2f04	-0.09921077
32	0xbc5f7a87	-0.013640053
33	0x3a9ef6ac	0.0012127957
34	0xbc070cd1	-0.008242802
35	0xbbf69c01	-0.0075259213
36	0xbc973a59	-0.01846044
37	0xbe3844a8	-0.1799494
38	0x3c6ba901	0.014383555
39	0xbc4edf04	-0.012626413
40	0xbd50c5f1	-0.05097002
41	0x3d2f9090	0.042862475
42	0x3cdd75f0	0.027033776
43	0x3cfbfb7e	0.03075957
44	0xbc2a2620	-0.010385066
45	0xbddbfb4d	-0.10741291
46	0x3d884d49	0.06655366
47	0xbd66b521	-0.05632508
48	0x3c1c666c	0.009545904
49	0x3d91dc27	0.07122069
50	0x3dc870cb	0.097871386
51	0xbd970808	-0.07374579
52	0xbd1babe1	-0.038005713
53	0x3dc79dd0	0.09746897
54	0x3cdb8438	0.026796445
55	0x3e0e9423	0.13923697
56	0xb9cf5b9b	-0.00039550368
57	0xbdab6c4e	-0.08370267
58	0x3d8f2e11	0.06991208
59	0xbe0df5cd	-0.13863297
60	0x3da4813e	0.080324635
61	0xbda6180f	-0.081100576
62	0xbcc26f7d	-0.023734802
63	0x3b9b9689	0.00474817
64	0xbe5a3436	-0.2130898
65	0xbd401dc3	-0.046903383
66	0xbdda3398	-0.10654372
67	0xbc488914	-0.012239713
68	0xbde35d8f	-0.11101829
69	0x3d467e99	0.048460577
70	0xbd18e7c7	-0.037330415
71	0x3d34881e	0.044075124
72	0x3de4463a	0.11146207
73	0xbd52c7e7	-0.051460173
74	0xbdd0c3eb	-0.101936184
75	0x3d186dcb	0.03721408
76	0xbd81c199	-0.06335754
77	0xbd6c283f	-0.05765557
78	0xbe193c8a	-0.149645
79	0xbc77368f	-0.015088691
80	0xbd55ee0c	-0.052228972
81	0xbd8af71b	-0.06785413
82	0xbdc88754	-0.09791437
83	0xbe53a9fb	-0.20670311
84	0xbdb88e8b	-0.09011563
85	0x3ccca722	0.024982039
86	0x3d02b8fb	0.031914692
87	0x3cfeb0bc	0.031090133
88	0x3dbb5b6b	0.09148296
89	0xbe5eea21	-0.21769
90	0x3dae19b0	0.08500993
91	0x3db8518d	0.089999296
92	0xbbbe8581	-0.0058142547
93	0xbdb10f44	-0.0864549
94	0xbb46aa21	-0.0030313807
95	0x3c50c41d	0.01274207
96	0xbdac320a	-0.08407982
97	0x3db54e68	0.088528454
98	0xbba65f53	-0.0050772815
99	0x3dc58474	0.09644404
100	0x3cf20bf3	0.029546713
101	0xbe2630f6	-0.16229615
102	0xbe5099b4	-0.20371133
103	0xbce86bf5	-0.02837179
104	0xbbd33fcf	-0.0064468156
105	0xbda52c33	-0.08065071
106	0xbe13eec4	-0.1444655
107	0xbd9b27f2	-0.07575978
108	0xbd81db62	-0.06340672
109	0x3dd45741	0.10368205
110	0xbd77bad6	-0.060480915
111	0xbd7d3e48	-0.061826974
112	0xbdef473c	-0.11683509
113	0x3d104591	0.035222594
114	0x3d86db36	0.0658478
115	0x3d122378	0.035678357
116	0xbe22125f	-0.1582732
117	0x3d8f4214	0.06995025
118	0xbdfcb580	-0.12339306
119	0xbd05a253	-0.032625508
120	0x3d97cc75	0.07412044
121	0xbd7c72d5	-0.06163295
122	0xbe02071c	-0.12698025
123	0x3c5cc5cb	0.013474892
124	0xbdedc89a	-0.11610527
125	0x3ccf0e0a	0.025275249
126	0x3d046a5b	0.03232799
127	0xbc753466	-0.014966106
128	0x3c43849d	0.011933473
129	0xbda314fd	-0.079629876
130	0x3e001f50	0.12511945
131	0xbe3129c3	-0.17301087
132	0xbc6eb9f4	-0.014570702
133	0xbd06664b	-0.032812398
134	0xbc13947a	-0.009007568
135	0xbdbca82b	-0.09211763
136	0xbcdb06ed	-0.0267367
137	0xbe00819e	-0.12549445
138	0xbdab2aaa	-0.08357747
139	0xbd8276ca	-0.063703135
140	0x3e0a5ff0	0.1351316
141	0xbc958b76	-0.018254977
142	0x3dbf94df	0.09354567
143	0xbe0cd8ef	-0.13754629
144	0xbd2f0ea5	-0.042738575
145	0xbd1fc4d5	-0.039006073
146	0x3e0156da	0.12630787
147	0xbde06161	-0.109560736
148	0x3d308203	0.04309274
149	0xbe0c7569	-0.13716663
150	0xbc896498	-0.0167716
151	0xbcb18a15	-0.021672288
152	0xbdbca629	-0.0921138
153	0xbc52625f	-0.012840836
154	0xbe04e0bf	-0.12976359
155	0xbabe57a2	-0.0014521966
156	0xbd995a5b	-0.07487937
157	0xbd200b8b	-0.03907351
158	0xbcd2b754	-0.025722183
159	0xba10f27a	-0.0005529296
160	0xbd098f3d	-0.03358387
161	0xbdc2a9b4	-0.095050246
162	0xbe8984f1	-0.2685924
163	0xbdc9168d	-0.09818754
164	0xbda0828b	-0.07837399
165	0xbd8f1433	-0.069862746
166	0x3bc33b5f	0.0059580053
167	0x3dd31829	0.103073426
168	0x3d06d713	0.032919955
169	0xbc8c7079	-0.017143475
170	0xbd2a5ddf	-0.04159343
171	0xbca6ac2f	-0.020345775
172	0xbbc45a85	-0.005992236
173	0xbdd78258	-0.10522908
174	0xbdc2880d	-0.09498606
175	0xbdad8837	-0.084732465
176	0x3c8f340a	0.017480869
177	0xbe0d9eee	-0.13830158
178	0xbce569df	-0.028004585
179	0x3d5a5629	0.053304825
180	0x3d8a77a1	0.06761099
181	0xbcad05ab	-0.021120867
182	0x3d206994	0.039163187
183	0xbdee65c5	-0.11640505
184	0x3dc698eb	0.096971355
185	0xbd6f7e9f	-0.058470365
186	0x3a3a9e20	0.00071188994
187	0xbb38f6ac	-0.00282232
188	0x3ae5e4af	0.0017539466
189	0x3c6e1969	0.014532425
190	0xba0633e0	-0.00051194243
191	0xbdb1e85f	-0.086868994
192	0xbe2b6747	-0.16738616
193	0xbd2f4bd2	-0.042796917
194	0x3c11ccd5	0.008898933
195	0xbd68c843	-0.05683161
196	0x3bbe9426	0.0058160005
197	0x3da3aba5	0.07991723
198	0xbd03665f	-0.03208005
199	0x3ca9d9c0	0.020733714
200	0xbb9bf81b	-0.004759801
201	0xbece0944	-0.40241444
202	0xbc9e4fe3	-0.019325202
203	0x3c8b9bc3	0.017042046
204	0xbd5d5409	-0.05403522
205	0x3df08119	0.117433734
206	0xbd5d65c9	-0.054052148
207	0xbd534c1a	-0.051586248
208	0xbcb90967	-0.022587491
209	0x3d4e6279	0.05038688
210	0xbe1c7c12	-0.15281704
211	0x3b41aae3	0.002955132
212	0xbc367859	-0.011137092
213	0x3c9442c4	0.018098243
214	0x3d07f7ab	0.03319518
215	0xbd67e219	-0.056612108
216	0xbe19e7c9	-0.15029825
217	0xbd146c74	-0.03623624
218	0xbddd41d7	-0.108035736
219	0x3d36837b	0.044558983
220	0xbcf933b8	-0.03042017
221	0xbc4a7ee7	-0.012359357
222	0xbe6784fc	-0.22609323
223	0xbc964b2c	-0.018346392
224	0xbe0b8821	-0.13626148
225	0xbd969fc3	-0.07354691
226	0xbd792ddc	-0.06083475
227	0x3b5be128	0.0033550952
228	0xbd839a26	-0.06425886
229	0xbe013a52	-0.12619904
230	0xbe18df49	-0.14928927
231	0xbd37fc25	-0.0449182
232	0xbc7b2b2d	-0.015330118
233	0x3c9b2810	0.018940002
234	0xbd3ef06f	-0.046616014
235	0x3b818f3b	0.003953842
236	0xbe734468	-0.23756564
237	0xbd954ba5	-0.07289819
238	0xbe1c4d73	-0.1526392
239	0xbd893a88	-0.06700617
240	0x3da5114e	0.08059941
241	0x3d834c49	0.064110346
242	0xbd08229c	-0.03323613
243	0xbd29c9f8	-0.041452378
244	0xbd6b5f51	-0.057463948
245	0x3c9b8bd8	0.018987581
246	0x3d329dc3	0.043607485
247	0x3d83eacc	0.06441268
248	0x3c3253c8	0.010884233
249	0xbd7ff606	-0.062490486
250	0xbb8a72d2	-0.0042251134
251	0x3d0c5545	0.034261007
252	0xbdf3bd5c	-0.11901352
253	0x3a01aa0e	0.00049462996
254	0x3cbb1778	0.02283834
255	0x3c68c872	0.014207946

encoder2.bias f4 [128]
0	0x3d2b572d	0.041831184
1	0x3d40e11b	0.047089677
2	0x3d4cddb6	0.050016128
3	0xbc99fadc	-0.018796377
4	0xbd418442	-0.04724527
5	0x3c85065f	0.01623839
6	0x3cb63c5e	0.022245582
7	0xbd35c2d9	-0.044375274
8	0x3c17c03c	0.009262141
9	0x3b49d2cf	0.0030795818
10	0x3d3d1779	0.046164963
11	0xbce43d10	-0.027861148
12	0xbd4a93f2	-0.049457498
13	0xbcafa175	-0.021439293
14	0x3d3629e2	0.044473536
15	0xbd1526dd	-0.036414016
16	0x3b9a978e	0.0047177738
17	0x3d5682f9	0.052371
18	0xbd477311	-0.04869372
19	0x3ca0f661	0.019648733
20	0xbc9d904d	-0.019233847
21	0x3caaf4da	0.020868707
22	0xbc8933f7	-0.016748412
23	0xba38f5b0	-0.0007055653
24	0x3d159f39	0.0365288
25	0xbae97641	-0.0017811732
26	0x3b74dfb7	0.003736479
27	0xbd1dd019	-0.038528536
28	0xbd1b8af7	-0.037974324
29	0xbc9ae920	-0.01890999
30	0x3c560f29	0.013065138
31	0x3cadc2b5	0.021211008
32	0x3cda3eb8	0.026641235
33	0x3bca0b44	0.0061658937
34	0xbce56feb	-0.028007468
35	0xba4d29b2	-0.00078263425
36	0x3c9a9d09	0.018873708
37	0xbc8d92a3	-0.017281836
38	0x3cc04f92	0.023475442
39	0x3c8bfffe	0.01708984
40	0xbd2c7b10	-0.04210955
41	0x3c5bc7f1	0.013414369
42	0xbb8fa32c	-0.0043834653
43	0x3ce8b7bb	0.028407922
44	0x3cab2779	0.020892845
45	0xbcc0bb37	-0.023526771
46	0xbca27f46	-0.01983608
47	0xbc908a18	-0.017643973
48	0x3ca1520a	0.01969244
49	0xbd372445	-0.044712324
50	0x3c9d585e	0.019207176
51	0xbd2022a5	-0.03909554
52	0xbd653686	-0.0559602
53	0xbd16e1ce	-0.036836438
54	0xbcbb8805	-0.022892008
55	0xbce79894	-0.028270997
56	0xbd1e0e1c	-0.038587674
57	0xbb5a99f0	-0.0033355914
58	0xbd3b3ab6	-0.045710288
59	0x3c8ef65b	0.017451456
60	0xbbd583f0	-0.0065159723
61	0xbba3372c	-0.0049809422
62	0x3d6f917c	0.058488354
63	0xbd30b7e4	-0.04314412
64	0xbd24a7fc	-0.040199265
65	0x3d5d433a	0.05401919
66	0x3c56bab6	0.013106039
67	0x3d3cc9e6	0.046090983
68	0x3c3c875d	0.0115068825
69	0x3ca3386a	0.019924361
70	0x3d6df671	0.058096353
71	0x3d1f38be	0.038872473
72	0xbd0408ff	-0.03223514
73	0x3cd93616	0.026515048
74	0x3aede09d	0.0018148605
75	0x3d10e472	0.035374112
76	0xbcd310fe	-0.025764938
77	0x3c28d9d7	0.010305843
78	0x3d3a23da	0.045444347
79	0x3d5728fb	0.052529316
80	0x3cdee360	0.02720803
81	0x3d525a0c	0.051355407
82	0xbd593f61	-0.05303896
83	0xbcff18b5	-0.03113971
84	0x3a1b84fa	0.0005932596
85	0xbb9bcfc7	-0.0047549936
86	0xbca82afd	-0.02052831
87	0xbcea1813	-0.028575933
88	0xbd58ee78	-0.052961797
89	0xbc4f24fc	-0.012643095
90	0xbcd6b121	-0.026207509
91	0x3d23bca1	0.039974812
92	0xbcfccef1	-0.030860396
93	0x3c7a1d4f	0.015265777
94	0xbcc68f04	-0.024238117
95	0xbcc6c65f	-0.024264513
96	0xbd00672e	-0.0313484
97	0x3d1d0c45	0.03834178
98	0xbd068dea	-0.032850184
99	0x3d332905	0.04374029
100	0x3d465884	0.04842426
101	0xbba563c8	-0.0050472952
102	0x3d338d46	0.0438359
103	0x3d12270e	0.035681777
104	0x3ccf631e	0.025315817
105	0xbd056b63	-0.032573115
106	0x3cb7ef47	0.022452964
107	0xbd2c05c4	-0.041997686
108	0xbc2204ff	-0.0098888865
109	0xbcb472ce	-0.0220274
110	0xbce6d932	-0.028179739
111	0x3d04b901	0.032402996
112	0xbc96c71d	-0.018405491
113	0xbc329e0f	-0.010901942
114	0xbc6b866a	-0.0143753085
115	0xbcd02ea8	-0.025412872
116	0x3d1bae2f	0.03800791
117	0xbd5876c6	-0.052847646
118	0x3d4872fb	0.04893778
119	0x3c29da3e	0.010366974
120	0xbd62ec49	-0.05540112
121	0xbd16094d	-0.036629964
122	0x3d4b6806	0.04965975
123	0xbce69d5e	-0.02815121
124	0xbbbc449c	-0.0057454836
125	0x3ca33dcf	0.019926934
126	0xbd0c6767	-0.0342783
127	0x3cf4e859	0.029895948

encoder3.weight f4 [64, 128]
0	0xbc6cfd42	-0.014464678
1	0x3dc81e5e	0.09771417
2	0xbd1301b6	-0.035890304
3	0x3e07f25f	0.13276051
4	0xbc772de6	-0.015086627
5	0x3e4d3991	0.20041491
6	0xbd923509	-0.07139022
7	0x3c88e2a8	0.01670964
8	0xbdb7b21b	-0.08969518
9	0xbde8b4f6	-0.113626406
10	0x3e17e216	0.14832339
11	0x3cbb5dca	0.02287187
12	0x3d9ee544	0.07758573
13	0x3d05740a	0.032581367
14	0x3bc2eb60	0.005948469
15	0xbd7cb6c1	-0.061697725
16	0xbe013336	-0.12617192
17	0x3bd317bf	0.0064420397
18	0xbd03ccf0	-0.032177866
19	0x3cb1609b	0.02165251
20	0x3d8efd79	0.0698194
21	0x3e368b1b	0.17826502
22	0xbe11afb4	-0.14227182
23	0x3bb3e67e	0.0054901233
24	0x3d801304	0.06253627
25	0xbe4a6a27	-0.19767056
26	0x3e0c40c1	0.13696577
27	0x3e08b068	0.13348544
28	0xbd7bdcce	-0.061489873
29	0xbd52976b	-0.051413935
30	0x3c8e9db9	0.017409192
31	0x3aed5e6a	0.0018109803
32	0x3cb0b11a	0.021568824
33	0x3d19ee3d	0.037580717
34	0xbdef6818	-0.11689776
35	0x3d3e5772	0.046470113
36	0xbc7467bc	-0.01491731
37	0xbd81c96d	-0.06337247
38	0xbe822d0c	-0.25424993
39	0xbd4079da	-0.046991207
40	0x3d2796ef	0.040915426
41	0x3e171dc2	0.14757445
42	0xbdd842fb	-0.105596505
43	0xbe0e2941	-0.13882925
44	0x3d4b468f	0.049627837
45	0x3d1e8de2	0.03870953
46	0x3e0ba7b6	0.13638195
47	0x3d22ff3b	0.039794188
48	0x3bc7e0cd	0.0060997964
49	0x3d2379ea	0.03991119
50	0x3c7326b6	0.014840772
51	0xbe230d47	-0.15923034
52	0xbd5038ff	-0.050835606
53	0x3cfd5558	0.030924484
54	0x3d97ef52	0.074186936
55	0xbd3745ca	-0.04474429
56	0xbd8260c9	-0.063661166
57	0x3c756c4b	0.014979432
58	0xbce0706e	-0.02739736
59	0xbd38f340	-0.045153856
60	0x3d481e6f	0.04885715
61	0xbdcc9ab3	-0.09990444
62	0xba2f6e98	-0.00066922
63	0x3d94e592	0.072703496
64	0x3db35ac1	0.08757544
65	0x3d895d3c	0.06707236
66	0xbd95dbea	-0.07317336
67	0x395177a0	0.00019976357
68	0xbd196a0e	-0.037454657
69	0xbce7bfaf	-0.028289644
70	0xbdc530be	-0.096284375
71	0x3e919753	0.28435764
72	0x3d27db2f	0.040980514
73	0x3c9fd1a1	0.019509139
74	0x3c672f43	0.014110389
75	0x3d33bd4a	0.043881692
76	0xbdb63c2a	-0.08898194
77	0xbca526e6	-0.02016015
78	0x3d21650b	0.039403003
79	0x3de2831c	0.110601634
80	0x3d4b463d	0.04962753
81	0x3caad9ba	0.020855773
82	0x3c66ce6a	0.014087299
83	0x3d2ec1f9	0.042665455
84	0x3d95ec01	0.07320405
85	0xbd366c93	-0.04453714
86	0xbd9201a4	-0.07129219
87	0xbd481cb9	-0.048855517
88	0x3d7b8591	0.061406676
89	0x3e08bf5d	0.1335425
90	0xbdc771b1	-0.09738482
91	0x3c0f0230	0.008728549
92	0x3da2e214	0.07953277
93	0x3dba8121	0.09106661
94	0xbbea51ec	-0.007150879
95	0x3e2c4399	0.16822661
96	0xbb96e808	-0.004605297
97	0xbd86000b	-0.06542977
98	0xbd968b18	-0.07350749
99	0x3c3cb73e	0.011518298
100	0xbe150aca	-0.14554897
101	0x3e20fb1a	0.15720788
102	0x3cdcbd04	0.026945598
103	0x3d90fa70	0.07079017
104	0xbe0b156c	-0.1358239
105	0x3d4ed5ab	0.05049674
106	0x3dd5a6af	0.10432183
107	0xb9781228	-0.00023657887
108	0x3dbecfd3	0.09316983
109	0xbd5ac8d0	-0.053414166
110	0xbdec3240	-0.11533022
111	0xbcdf027a	-0.02722286
112	0xbdd7de11	-0.10540403
113	0xbe151e9d	-0.1456246
114	0x3af65516	0.0018793668
115	0xbe2cf133	-0.16888885
116	0x3cc5920a	0.024117488
117	0x3da7bd89	0.08190448
118	0xbcf0ccc8	-0.029394522
119	0x3db39aa0	0.08769727
120	0xbd70008b	-0.058594268
121	0xbe1c8b07	-0.1528741
122	0xbd565fcc	-0.052337453
123	0x3d8aa2b2	0.06769313
124	0x3de62326	0.11237173
125	0x3e23ea81	0.16007425
126	0xbd93645d	-0.07196877
127	0xbd06edd2	-0.032941647
128	0xbe06177d	-0.13094898
129	0xbd721112	-0.05909831
130	0xbd3f3882	-0.04668475
131	0x3c248de3	0.010043594
132	0x3d2907c6	0.04126718
133	0x38e34aa6	0.00010838108
134	0x3e3fb77a	0.18722335
135	0x3d780b0a	0.060557403
136	0xbe1cb931	-0.1530502
137	0xbd20eb49	-0.039286885
138	0xbe01b18f	-0.1266539
139	0xbdd4c087	-0.10388284
140	0xbd92614f	-0.071474664
141	0x3da27e65	0.07934264
142	0x3e09bd04	0.1345101
143	0x3e690d6f	0.22759031
144	0x3d31bee6	0.043394946
145	0x3c5d00b9	0.013488942
146	0x3e42ee59	0.19036235
147	0x3d88b964	0.066759855
148	0x3dde88f4	0.108659655
149	0xbdcf522c	-0.10123095
150	0x3d1accd3	0.03779299
151	0xbccd2075	-0.02503989
152	0xbd29cef6	-0.04145714
153	0x3d92f6c6	0.071759745
154	0x3c23a4a7	0.009987987
155	0xbd30434f	-0.04303294
156	0xbc734329	-0.014847555
157	0x3c7a7072	0.015285598
158	0xbdaa28cc	-0.08308563
159	0xbe0b69a7	-0.13614522
160	0xbb055984	-0.0020347545
161	0xbe32dd21	-0.17467166
162	0xbbc03f57	-0.0058669257
163	0x3c0bf893	0.008543151
164	0xbcfdf9f9	-0.031002985
165	0x3dda3ced	0.10656152
166	0x3d63b25e	0.055590026
167	0x3db501f0	0.0883826
168	0x3d221d6f	0.03957885
169	0xbd1b7403	-0.037952434
170	0x3d24485a	0.040108062
171	0xbd89f258	-0.067356765
172	0x3da60497	0.08106344
173	0x3cd50918	0.026005313
174	0xbdf0bfee	-0.11755358
175	0x3d440fa2	0.04786647
176	0xbcc5be3c	-0.024138562
177	0xbd6aa309	-0.05728439
178	0x3dc46da0	0.09591222
179	0x3e2f356f	0.17110227
180	0xbc54885c	-0.012971964
181	0xbdaaff26	-0.08349447
182	0x3d795e0e	0.060880713
183	0x3c81a390	0.015825063
184	0xbdb0d1fc	-0.08633801
185	0xbd81eda8	-0.063441575
186	0x3ded2f31	0.11581267
187	0x3bb0595d	0.0053817467
188	0xbe2a7d2e	-0.16649315
189	0xbd6c6293	-0.057711195
190	0xbd0a71eb	-0.033800047
191	0xbdb081fb	-0.08618542
192	0x3db13f2a	0.08654626
193	0x3c2b3df9	0.010451787
194	0xbd922f64	-0.07137945
195	0x3d6a36fc	0.057181343
196	0xbe352743	-0.17690758
197	0xbd80dbd9	-0.062919326
198	0x3cbe593c	0.02323591
199	0x3a2619a9	0.0006336221
200	0x3e0df5ec	0.13863343
201	0xbd3442d7	-0.044009056
202	0x3c0577a4	0.0081462
203	0x3e3b7757	0.18307243
204	0x3bc083d2	0.005875089
205	0x3d139eeb	0.036040228
206	0xbd83e84a	-0.0644079
207	0xbe0caec4	-0.13738543
208	0xbc8f6832	-0.017505739
209	0x3d9b661c	0.07587835
210	0x3df67e1b	0.120357715
211	0x3d29aca5	0.041424412
212	0xbd48f66a	-0.049063124
213	0xbd9e9e80	-0.07745075
214	0x3de068f7	0.109575205
215	0xbe32c4a6	-0.17457828
216	0x3e1dc813	0.15408354
217	0xbe1250e1	-0.14288665
218	0xbdb485a7	-0.08814555
219	0xbcdc8e45	-0.026923308
220	0x3e03cb4f	0.12870525
221	0xbdcf612c	-0.10125956
222	0xbd5636e2	-0.052298434
223	0xbd9bfcee	-0.07616602
224	0x3d855e23	0.06512096
225	0x3e243a04	0.16037756
226	0x3e4260e5	0.18982275
227	0xbd9497c5	-0.0725551
228	0x3d30f88f	0.043205794
229	0xbc1a0ff6	-0.009403219
230	0x3e3011cc	0.17194289
231	0x3de764c0	0.112985134
232	0xbdafcf3c	-0.08584449
233	0xbda6ef2e	-0.08151089
234	0xbc9cb1ab	-0.019127687
235	0xbc0f2828	-0.008737601
236	0x3dc22c20	0.094810724
237	0x3ca03137	0.019554717
238	0x3e13e1a2	0.14441541
239	0x3db603bc	0.08887431
240	0x3d1fb5d2	0.038991757
241	0x3dfb1a39	0.12260861
242	0x3d807fa6	0.06274347
243	0x3d4dcd3c	0.050244555
244	0x3dc0bb99	0.094107814
245	0xbc69eabf	-0.014277159
246	0x3ca9981c	0.020702414
247	0xbe1012e0	-0.140697
248	0x3c9d4023	0.019195622
249	0x3dfc5458	0.12320775
250	0x3d3cc658	0.046087593
251	0xbdb5ab85	-0.088706054
252	0xbd41f957	-0.04735693
253	0xbd2cb705	-0.04216673
254	0xbc4b64d8	-0.01241418
255	0xbdeadc0d	-0.114677526

encoder3.bias f4 [64]
0	0x3d40b56e	0.047048025
1	0xbccd8a9b	-0.025090506
2	0x3d5da7a8	0.054114968
3	0xbca941eb	-0.020661315
4	0xbda47c13	-0.08031478
5	0x3c20a0c7	0.009803957
6	0x3d4b8e66	0.04969635
7	0xbbf618d4	-0.007510284
8	0x3d29e11d	0.04147445
9	0x3cef5540	0.029215455
10	0x3d79da04	0.06099893
11	0xbda139b7	-0.07872336
12	0xbd29a9cf	-0.041421708
13	0x3d36028a	0.044436015
14	0x3d189388	0.03725007
15	0xbccc49c1	-0.024937512
16	0x3d4552c1	0.048174623
17	0x3d15e6e6	0.036597155
18	0xbd316af1	-0.043314878
19	0xbdbb69b4	-0.09151021
20	0x3b4aaa35	0.0030924205
21	0xbcf56543	-0.029955512
22	0xbda02b25	-0.07820729
23	0xbd8623c9	-0.06549794
24	0x3cb87bfc	0.022520058
25	0xbd2b83f9	-0.041873906
26	0x3d5aa0d9	0.053376053
27	0xbd054802	-0.032539375
28	0x3d8a88d1	0.06764377
29	0xbd1cb128	-0.038254887
30	0x3d99b9da	0.075061515
31	0x3b4f0ccb	0.0031593319
32	0x3d9ed4df	0.07755446
33	0x3b8baa7d	0.004262267
34	0x3c20bdb6	0.009810856
35	0x3c8bff51	0.017089518
36	0x3c941aad	0.018079126
37	0xbd0423b6	-0.03226062
38	0x3cd2f1ee	0.025750127
39	0x3da34dd9	0.07973833
40	0x3d01a678	0.031652898
41	0x3da258fc	0.07927129
42	0x3c804dd7	0.015662117
43	0xbd5b2309	-0.05350021
44	0x3cf4815b	0.029846838
45	0xbd41ab4f	-0.047282513
46	0x3d8913b1	0.06693209
47	0xbd1f1a42	-0.0388434
48	0xbcb8ef15	-0.02257494
49	0xbd65e94d	-0.056130696
50	0x3d82c250	0.063847184
51	0xbc5817d2	-0.013189273
52	0xbd022740	-0.031775713
53	0x3d32e9e2	0.04368008
54	0x3d897221	0.067112215
55	0x3d016ec3	0.03159977
56	0x39511e0b	0.00019942985
57	0x3d7812d4	0.06056483
58	0xbd8b5140	-0.068026066
59	0x3cf25e8b	0.029586097
60	0x3cf7fd4f	0.030272154
61	0xbcdbe617	-0.026843114
62	0x3c8a827a	0.01690792
63	0x3ce35c4d	0.027753973

decoder1.weight f4 [128, 64]
0	0x3c4fded3	0.012687403
1	0xbe051c65	-0.12999113
2	0xbd9adc3c	-0.075615376
3	0x3d26261b	0.040563684
4	0xbd15f896	-0.036614023
5	0xbe0970d4	-0.13421947
6	0x3cb2979f	0.021800814
7	0x3d79ac3b	0.060955267
8	0xbcb48238	-0.02203475
9	0xbea44118	-0.32080913
10	0xbd83d308	-0.064367354
11	0xbd31e4a6	-0.043430947
12	0xbd61e090	-0.0551458
13	0xbdfdde91	-0.12395967
14	0x3d16b1ad	0.03679054
15	0xbd9f569b	-0.077801906
16	0x3d1120e0	0.035431743
17	0x3d9c7e51	0.076412804
18	0x3e20fd50	0.15721631
19	0xbe72a3f5	-0.23695357
20	0x3be9f682	0.0071399817
21	0xbdb337b8	-0.08750862
22	0x3d0e3345	0.034716863
23	0xbe565e07	-0.20934306
24	0xbcc6ec1b	-0.024282506
25	0xbde656f6	-0.11247055
26	0x3d04a6d7	0.032385673
27	0xbe2b6863	-0.16739039
28	0x3cb9e5c6	0.022692572
29	0xbd87f654	-0.0663878
30	0x3dfdc555	0.12391154
31	0x3df249f2	0.1183051
32	0x3e05d350	0.1306889
33	0x3dc07533	0.09397354
34	0x3e0c5a9b	0.13706438
35	0xbd53c1a3	-0.05169834
36	0xbde1d921	-0.11027742
37	0xbcdc8143	-0.026917106
38	0x3c632bb9	0.013865405
39	0xbdea08da	-0.114274696
40	0xbd4831e5	-0.048875708
41	0x3c9c440f	0.019075422
42	0x3bd6a197	0.0065500247
43	0xba276dd9	-0.0006386913
44	0xbd6b68c9	-0.057472978
45	0xbe2521cf	-0.16126178
46	0xbc5055ac	-0.012715738
47	0x3d6dcf06	0.05805876
48	0xbd0813c1	-0.033221964
49	0xbdbf3b93	-0.09337535
50	0xba480de1	-0.00076314626
51	0xbda51ab2	-0.08061732
52	0xbcc12649	-0.023577826
53	0x3cf4e865	0.02989597
54	0x3e120f44	0.14263636
55	0x3e08acb3	0.1334713
56	0xbe426a4d	-0.18985863
57	0xbd9369d7	-0.07197922
58	0xbd90c246	-0.07068305
59	0xbda2d8c5	-0.07951502
60	0x3d33e2a8	0.043917328
61	0x3c542425	0.012948071
62	0x3d26988c	0.040672824
63	0xba05f83c	-0.0005110537
64	0x3e35ba6f	0.177469
65	0xbe1e5ac4	-0.15464312
66	0xbbd658b5	-0.0065413364
67	0xbd20deea	-0.039275087
68	0xbdc50dd1	-0.09621776
69	0x3decb9ce	0.11558877
70	0x3de9cb58	0.11415738
71	0xbc02a355	-0.007973512
72	0x3d51dd79	0.051236603
73	0x3de3b1cd	0.11117897
74	0x3d094600	0.033514023
75	0xbd836ddd	-0.06417439
76	0x3e248550	0.1606648
77	0xbd5c4d85	-0.053784866
78	0xbd8d688b	-0.069047056
79	0xbdd94acd	-0.1060997
80	0xbc5bc66d	-0.013414008
81	0x3d0cc4cf	0.03436738
82	0xbdba8aa3	-0.09108474
83	0xbd914bb6	-0.07094519
84	0xbd9b12b5	-0.075719275
85	0xbd4ea410	-0.05044943
86	0x3e07a3f1	0.13246132
87	0x3d91a521	0.07111574
88	0x3c681d66	0.014167165
89	0xbe25d166	-0.1619316
90	0x3e1642de	0.14673945
91	0xbdba4a95	-0.09096257
92	0xbe5ca385	-0.21546753
93	0xbda35e90	-0.07977021
94	0x3d1ac4f4	0.037785485
95	0x3e45b5d1	0.19307639
96	0xbd624e08	-0.055250198
97	0x3d5438f8	0.051812142
98	0xbe03ddb2	-0.12877539
99	0x3de44fcf	0.11148035
100	0xbc7adf40	-0.015312016
101	0x3d1575da	0.036489345
102	0xbd2e4098	-0.04254207
103	0x3e0f6ede	0.14007136
104	0xbdacc0ff	-0.084352486
105	0xbd9df263	-0.07712247
106	0x3d65a52e	0.05606573
107	0xbd1c572f	-0.038169082
108	0xbdb21ce8	-0.0869692
109	0x3b6375a6	0.0034707575
110	0x3dfc5966	0.12321739
111	0x3d2286f9	0.0396795
112	0x3c6aa4cd	0.014321518
113	0xbda6daac	-0.08147177
114	0x3e3a0d23	0.18169074
115	0xbda6bea2	-0.08141829
116	0xbdb666e7	-0.08906346
117	0x3df5b7ba	0.11997934
118	0x3e0b7797	0.13619839
119	0x3e055e81	0.13024332
120	0x3e1b53db	0.15168707
121	0xbcc379d5	-0.023861805
122	0xbd142d6f	-0.03617614
123	0xbdd586da	-0.104261115
124	0xbd81cf67	-0.06338387
125	0x3c82b8ed	0.01595732
126	0x3e13ce74	0.14434224
127	0xbc963480	-0.01833558
128	0xbda5722c	-0.08078417
129	0xbcef982a	-0.029247362
130	0xbe184acb	-0.14872281
131	0x3db2fba3	0.08739402
132	0xbc4aa1a9	-0.012367644
133	0xbe212743	-0.15737633
134	0xbccaa576	-0.024737101
135	0xbd38a6e3	-0.04508103
136	0x3c59fe52	0.013305264
137	0x3c6a9786	0.014318353
138	0xbddba61c	-0.10725042
139	0xbbfa0578	-0.0076300465
140	0xbe30b1ed	-0.17255373
141	0xbe22ddb1	-0.15904881
142	0xbda3bee5	-0.079953946
143	0x3c58cfd7	0.013233147
144	0xbc4c69d9	-0.012476408
145	0xbcaf321a	-0.021386195
146	0xbde74879	-0.1129312
147	0xbd4046b6	-0.046942435
148	0x3d683150	0.056687653
149	0x3d8e8da2	0.06960608
150	0xbcc02ed0	-0.023459822
151	0xbdce7a80	-0.10081959
152	0xbd4c1821	-0.0498277
153	0xbd413056	-0.047165237
154	0xbd5efbbc	-0.05443929
155	0x3dcf8884	0.1013346
156	0x3e40b4aa	0.18818918
157	0xbe3dceb3	-0.1853588
158	0xbe1e30d2	-0.15448311
159	0xbd98400f	-0.07434093
160	0xbe7dafcd	-0.24774094
161	0xbe00ca1f	-0.12577103
162	0xbdfbf540	-0.12302637
163	0x3de26f89	0.1105643
164	0xbda8ef7e	-0.082488045
165	0xbe100306	-0.14063653
166	0xbd7c0e24	-0.061536923
167	0xbe6881ca	-0.2270576
168	0x3bcd70bf	0.006269544
169	0xbd694f4a	-0.05696038
170	0xbdca83dc	-0.098884314
171	0xbde8d7c3	-0.11369278
172	0xbd3892cb	-0.045061868
173	0x3cdb4538	0.026766405
174	0xbd3ccdef	-0.04609483
175	0xbd8a63d4	-0.06757322
176	0xbde89594	-0.11356655
177	0x3d814101	0.06311227
178	0xbda99098	-0.08279532
179	0xbd7f622d	-0.062349487
180	0x3be970e5	0.007124054
181	0xbce2086b	-0.027591905
182	0xbd3f7b8c	-0.046748683
183	0x3b2e428b	0.0026589956
184	0xbc4bd11b	-0.012439991
185	0x3c7461d8	0.014915906
186	0xbe707e71	-0.23485734
187	0x3b14f7c9	0.00227307
188	0xbd5aa6d0	-0.05338174
189	0xbe44e147	-0.19226561
190	0xbe2948ba	-0.16531649
191	0x3d8336af	0.064069144
192	0x3cfebcb8	0.031095847
193	0x3da1bcb1	0.07897318
194	0xbe26ac97	-0.16276775
195	0x3ca28adc	0.019841604
196	0x3d9b9b00	0.07597923
197	0x3d044585	0.03229286
198	0xbe1e866f	-0.1548097
199	0xbcb1a6e6	-0.021686029
200	0x3e6be92a	0.23038164
201	0x3dd07212	0.10178007
202	0x3e21d474	0.158037
203	0x3cbe51b4	0.023232318
204	0xbc29c91b	-0.010362889
205	0x3dea0f4d	0.114287
206	0xbb055c9a	-0.0020349384
207	0x3e19b8bd	0.15011878
208	0x3d955696	0.072919056
209	0x3df600fa	0.12011905
210	0x3dd13be1	0.10216499
211	0x3d0cfc0e	0.034420066
212	0xbded6924	-0.115923196
213	0x3e431286	0.19050035
214	0x3e197253	0.14985017
215	0xbdb19dee	-0.08672701
216	0xbdef536a	-0.11685832
217	0x3dfb948b	0.12284192
218	0x3e39a805	0.181305
219	0x3d1c4591	0.03815228
220	0xbe04ab24	-0.1295591
221	0x3dee2553	0.11628213
222	0xbdf3457a	-0.11878486
223	0x3d36446f	0.044498857
224	0x3c061a3e	0.008184968
225	0x3de32540	0.11091089
226	0x3e2460a8	0.16052496
227	0x3cebe197	0.028794093
228	0x3d41fa22	0.047357686
229	0xbe227f01	-0.1586876
230	0x3e19fd09	0.15037932
231	0x3c811d38	0.015761003
232	0x3d87b45e	0.06626199
233	0x3dc17986	0.09447007
234	0x3d0cddd2	0.03439123
235	0x3b9972a1	0.0046828543
236	0xbd9120ab	-0.07086309
237	0x3c1dc686	0.009629851
238	0x3e217042	0.15765479
239	0xbd9b6a8d	-0.07588682
240	0xbdb1c3b4	-0.086799055
241	0xbdf2987e	-0.11845492
242	0xbc7dc630	-0.015489146
243	0xbd1b77d9	-0.037956093
244	0x3cad6c18	0.021169707
245	0xbdfc4665	-0.12318114
246	0xbbd757d5	-0.0065717497
247	0x3ce75420	0.028238356
248	0xbce5e48d	-0.028063083
249	0xbcd21625	-0.025645325
250	0x3cfdd346	0.030984532
251	0x3cedc95b	0.029026678
252	0xbe0e425c	-0.13892502
253	0x3de86f89	0.11349399
254	0xbc047820	-0.008085281
255	0xbc6e233d	-0.014534769

decoder1.bias f4 [128]
0	0xbdab518e	-0.08365165
1	0xbc6c7326	-0.01443175
2	0x3d9e1922	0.077196375
3	0x3da984bd	0.08277271
4	0xbd90a424	-0.07062557
5	0x3b95f5fa	0.004576442
6	0x3ca47c66	0.020078849
7	0x3b2b4864	0.0026135677
8	0x3d732901	0.059365276
9	0xbcc18359	-0.023622202
10	0xbce6a445	-0.028154502
11	0x3dd1cef2	0.1024455
12	0x3c32cb4d	0.0109127285
13	0xbcf1b36f	-0.029504506
14	0xbd0f0792	-0.03491933
15	0xbd85feb0	-0.065427184
16	0x3cc82158	0.024429962
17	0x3d0e0b9b	0.034679037
18	0xbcff3a08	-0.031155601
19	0x3da11884	0.07866004
20	0x3d34d447	0.044147756
21	0x3caeccca	0.021337885
22	0x3d70b0db	0.058762413
23	0xbdbddbe7	-0.09270459
24	0xbdaf915f	-0.08572649
25	0x3cfa113a	0.030525792
26	0x3dbe82fc	0.09302327
27	0xbdb1c8fd	-0.086809136
28	0xbd94762e	-0.072491035
29	0xbd2f22ed	-0.042757917
30	0x3cde6593	0.027148044
31	0xbda1dbd1	-0.07903255
32	0x3cb5c8d3	0.022190487
33	0xbdad5d16	-0.0846502
34	0xbda11dab	-0.07866987
35	0x3de3cc31	0.11122931
36	0x3da029b1	0.07820452
37	0x3d8f3560	0.06992602
38	0xbdb421b3	-0.0879549
39	0x3db79abf	0.08965062
40	0x3d0e0291	0.034670416
41	0xbdb46d1e	-0.08809875
42	0xbdbe4606	-0.092907
43	0x3d2c48e5	0.042061705
44	0xbd1467d9	-0.03623185
45	0x3b225bcb	0.002477395
46	0x3aba4143	0.0014210123
47	0x3d6177a3	0.055045735
48	0x3d23c0ef	0.039978918
49	0xba13f186	-0.0005643595
50	0x3da3fa27	0.08006697
51	0x3d8ebe4b	0.06969889
52	0xbcdcc1e9	-0.026947932
53	0x3d50c4dc	0.05096899
54	0x3da37e8a	0.0798312
55	0x3dda486b	0.10658344
56	0xbd90e392	-0.070746556
57	0x3d707aac	0.05871074
58	0x3d4948c3	0.049141657
59	0xbde09e90	-0.109677434
60	0xbda0a51b	-0.07843991
61	0xbdc375f3	-0.095439814
62	0xbca00cf7	-0.019537432
63	0xbd43c49a	-0.047794916
64	0x3de53978	0.11192602
65	0xbd339be9	-0.04384986
66	0x3d50a63a	0.050939776
67	0x3d0bc88f	0.034126814
68	0x3d60673a	0.054785945
69	0xbd3c9618	-0.046041578
70	0x3a7cc0e6	0.0009641781
71	0x3d33b0af	0.04386967
72	0xbd9951a2	-0.07486273
73	0x3ddfb8b6	0.10923903
74	0x3d82df53	0.06390252
75	0x3d2efd15	0.042721827
76	0xbdbe714c	-0.092989534
77	0x3d95acb4	0.07308331
78	0x3da5ab68	0.08089334
79	0xbd8ad350	-0.06778586
80	0xbb1a745c	-0.002356789
81	0x3cd20c61	0.025640668
82	0x3de83c12	0.113395825
83	0xbd8c5966	-0.06852989
84	0x3dca8ae3	0.09889772
85	0xbdc074cf	-0.093972795
86	0x3ddb973e	0.107222065
87	0x3c933991	0.017971786
88	0xbdb2cb35	-0.08730165
89	0xbdb4f67a	-0.08836074
90	0x3dc60b76	0.09670155
91	0xbcfbfa5e	-0.030759033
92	0x3d93e7ba	0.07221933
93	0xbdca4fe7	-0.098785214
94	0x3dcd6fb8	0.10031074
95	0x3b9fd084	0.004877152
96	0x3d42507b	0.047440033
97	0x3ddd94c1	0.10819388
98	0xbbb6e84c	-0.005581891
99	0x3d0c477f	0.03424787
100	0x3d592c7e	0.053020947
101	0xbbc25f08	-0.0059317388
102	0x3d896163	0.06708028
103	0x3da4a815	0.080398716
104	0x3da66ea5	0.081265725
105	0xbdd95fb5	-0.10613958
106	0x3d870eb4	0.06594601
107	0xbcc276fa	-0.023738373
108	0x3d02558e	0.031819873
109	0xbdbb61c3	-0.09149506
110	0xbcaf4676	-0.021395903
111	0xbd862941	-0.06550837
112	0x3dacef3a	0.08444066
113	0xbbe89d6a	-0.0070988433
114	0xbd9f1ac9	-0.07768781
115	0x3c06c200	0.008224964
116	0xbc3cd1e0	-0.0115246475
117	0xbdcf55b8	-0.101237714
118	0xbd7ab3e0	-0.0612067
119	0xbba543ca	-0.0050434815
120	0xbd7475d1	-0.05968267
121	0xbdc50283	-0.0961962
122	0x3d86345d	0.06552956
123	0xbdad4ed6	-0.084623024
124	0xbd3ed002	-0.04658509
125	0x3d8df0b5	0.06930677
126	0x3ddef2bc	0.10886142
127	0xbcdc371e	-0.02688175
